components/esp-dl/tools/quantization_tool/examples/M1.onnx (onnx, 858949 bytes, 16 tensors)

sequential/dense_2/MatMul/ReadVariableOp:0 f4 [64, 2]
000000 2f fa 2e be 9f a9 fe 3d b8 ac 62 3e a3 ee 85 3e
       -0.17087625 0.124346964 0.221362 0.26158628
000010 61 3f 64 3e a9 21 47 3e d8 d7 0d 3d 3d 7b 8c be
       0.22289802 0.19446434 0.034629673 -0.27437773
000020 e2 00 a4 3d 57 d0 3c 3e 5e 0b 71 3e 56 31 38 be
       0.08007981 0.1843885 0.23539492 -0.1798757
000030 22 36 0d be 01 d0 6e 3e 8e 5b 36 be 48 79 b7 bd
       -0.13790181 0.23321535 -0.17808363 -0.089586794
000040 96 2a 79 bd e3 e2 80 3d a0 fc 57 3e 9b 6c 63 3e
       -0.06083163 0.06293275 0.21092463 0.22209398
000050 96 a2 2a 3e c2 bf 8d be c7 53 d7 3d 24 7b 87 be
       0.16663584 -0.27685362 0.10514026 -0.26461136
000060 7a 61 85 be b7 49 42 be 86 96 57 be d7 72 8c be
       -0.2605093 -0.18973432 -0.21053514 -0.27431366
000070 28 0f 5d 3e 48 a7 47 3e 5a 01 8d 3e 1b 5d bf bc
       0.21587813 0.19497406 0.27540094 -0.023359826
000080 7a 3d 33 3e 76 e9 8c 3d 1b f1 9b 3e 80 45 26 3d
       0.1750392 0.06880467 0.30457386 0.040593624
000090 25 51 02 3c 60 38 68 bd f0 b1 48 3e 10 85 79 bc
       0.007953917 -0.05669439 0.19599128 -0.0152294785
0000a0 b9 51 67 be f4 57 54 be d2 31 23 3e 63 c8 e5 bd
       -0.22589768 -0.20736676 0.15936974 -0.11219861
0000b0 4d 6e 50 bd f1 fe 3b 3e 07 ca b4 3d 9c c1 df bd
       -0.05088644 0.18358971 0.08827596 -0.109256
0000c0 2a 43 95 3e f7 14 0c be fd 17 73 3e dd 0f 03 be
       0.29152805 -0.13679872 0.2373962 -0.1279902
0000d0 2c a4 a0 3b 12 e1 4d be b4 23 b5 3d 98 5b 4e 3e
       0.0049023833 -0.20105389 0.088447005 0.20152128
0000e0 08 dd 41 3e 0f 0d 8d 3d 57 8e 0b 3e 9f c3 5c be
       0.18931973 0.06887256 0.13628517 -0.21558999
0000f0 c4 09 7b be c0 c8 5a be f4 0c 6b bc 23 fa c7 3d
       -0.24515444 -0.21365643 -0.01434635 0.09764507
000100 75 62 0d 3e 27 8e 91 3e 9d dd b1 3c 9b 09 41 be
       0.1380709 0.28428766 0.021712119 -0.1885132
000110 94 b7 91 3b 8d 26 b1 3d f8 ca 0c be fb 29 8b 3e
       0.004446933 0.08649931 -0.13749301 0.27180466
000120 a8 e3 0e 3d 4e d4 23 3e 61 f9 81 3e 6e 92 eb 3b
       0.03488508 0.15998957 0.25385574 0.0071890866
000130 8f b9 1b 3e 52 bb 8a 3e a2 1c 8a 3e 8d 14 90 3d
       0.15207504 0.2709604 0.2697497 0.0703517
000140 4f 4b 70 be 85 cc 8e be 8a fe 64 be ed d3 a2 3c
       -0.23466228 -0.2789041 -0.22362724 0.019876445
000150 8e 49 f6 ba 3e 55 bf bc 14 75 f2 bd 2f 31 84 3e
       -0.0018790232 -0.023356076 -0.11838737 0.25818774
000160 4a 56 83 bc f1 5e 63 3e 43 40 b9 3d 41 b4 a6 bd
       -0.016032357 0.22204186 0.0904546 -0.081398495
000170 ae 8b 29 be f2 0b f6 bd fc d0 34 bd 9a 1f 98 be
       -0.1655719 -0.12013997 -0.044144616 -0.2971161
000180 be a4 90 be a4 a1 4f 3e cd 12 d9 bd a8 95 92 be
       -0.28250688 0.20276505 -0.10599289 -0.28629804
000190 e0 b5 7b 3e 01 e0 b9 3b cb d1 d5 3d a5 1b 88 be
       0.24581099 0.0056724553 0.104404055 -0.2658359
0001a0 01 09 2d 3d b6 41 26 be 0c 63 41 3e 03 00 3f bd
       0.042244915 -0.16236004 0.1888544 -0.04663087
0001b0 56 a1 9c be d9 16 79 bd 34 8a 2c 3e f8 b5 1f be
       -0.3059184 -0.060812805 0.16849595 -0.1559676
0001c0 b2 ee 6d be ac e3 94 3e 56 ea 48 3e 22 01 ce bd
       -0.23235586 0.2907995 0.19620642 -0.1005881
0001d0 fe 59 27 be 58 64 34 be 3e 99 15 be 20 66 76 be
       -0.16342923 -0.17616403 -0.14609239 -0.24062395
0001e0 94 72 4a be c9 64 eb 3d 6c 13 94 3e 49 e7 12 be
       -0.1977027 0.114938326 0.28921068 -0.14346041
0001f0 fd 17 fa 3d 7e 1b 66 be 4c 63 03 3e f9 90 62 3d
       0.12211607 -0.22471425 0.12830848 0.055314038

sequential/dense_2/BiasAdd/ReadVariableOp:0 f4 [2]
000000 5d a9 08 3a d0 34 d3 3a
       0.00052132254 0.0016113762

sequential/dense_1/MatMul/ReadVariableOp:0 f4 [64, 64]
000000 dd 09 59 bb 9d e9 3b 3e 6c 74 ec 3d 50 01 26 be
       -0.0033117451 0.18350835 0.11545643 -0.16211438
000010 cb cb 72 3d 7d 7a d2 3d 7c c6 91 3c 18 c1 2f be
       0.059276383 0.10277269 0.01779484 -0.17163503
000020 4d 41 07 be 7c d4 3b 3e 5b fa 17 be 1c 2e d3 bd
       -0.13208504 0.18342775 -0.14841597 -0.10311529
000030 93 6e 94 bc da ea 11 3e 96 de 51 be 1a 9c 73 bd
       -0.018119132 0.14249745 -0.20495066 -0.059475042
000040 ac 52 79 3d 23 11 03 be 82 0a a6 bd f1 3c 39 be
       0.060869858 -0.12799506 -0.08107473 -0.18089654
000050 c1 1b d2 3d 64 e2 d4 3d 33 4f 61 3d ae 36 11 be
       0.102592 0.10394743 0.05500717 -0.14181015
000060 ea fc 92 3d ed c7 39 3e 2a 06 c5 bd 90 a1 db 3d
       0.07177146 0.18142672 -0.09620316 0.10724175
000070 8b 44 2c 3e ad 11 0d 3d 0f d1 df bd 0c 37 11 be
       0.16823022 0.034440685 -0.10928547 -0.14181155
000080 29 e1 16 3e bb 0c 66 bd e6 7a a7 bd f7 a4 d5 bd
       0.1473433 -0.056164484 -0.08177738 -0.10431855
000090 96 5f c6 3d b8 69 43 3e 80 8c 41 bd 26 be be 3d
       0.096862 0.19083297 -0.047253132 0.09313612
0000a0 93 70 20 be 61 e5 85 bd 7c 60 4d be cf 2e 43 be
       -0.15667944 -0.06537891 -0.20056337 -0.19060825
0000b0 ca ca 5a bd e2 08 9a 3d 18 49 bd 3b a5 b8 8a 3d
       -0.05341605 0.075212255 0.0057765357 0.067734994
0000c0 cf 19 05 3e ea 74 e7 bd e3 97 16 bd ed 49 71 bd
       0.12998126 -0.113015965 -0.036765944 -0.05890839
0000d0 0a 8e 39 be dc 25 4c 3c bd 41 50 3e 15 37 88 bd
       -0.1812059 0.012460198 0.20337577 -0.06651131
0000e0 65 39 95 3d 84 b3 69 bd 9c 6d ca 3d 90 76 b5 3d
       0.07286338 -0.057055965 0.098841876 0.088605046
0000f0 12 ee c0 3d 3a 1d 92 3d d6 1f b6 3d a4 ab 1d be
       0.09420408 0.07134481 0.08892791 -0.15397507
000100 bc 68 a2 bc 43 7d 2b 3e ff ad 8d 3d 4a 96 12 be
       -0.019825332 0.16747002 0.06917953 -0.14315143
000110 8f 45 d3 bd 9d e2 e3 bc 02 67 01 be e8 3a bf bd
       -0.103160016 -0.027818019 -0.1263695 -0.09337407
000120 71 40 15 be bc e6 37 3e af 71 02 3e 13 82 d0 bd
       -0.14575364 0.17959112 0.1273868 -0.1018106
000130 b4 d4 0b 3e 31 4e bf 3d ad 47 e7 3d 0f 9c e1 3c
       0.13655359 0.09341086 0.11292968 0.027540235
000140 f7 38 69 bd 62 45 79 bd 34 3e 9c bd f1 df e4 bd
       -0.05693909 -0.060857184 -0.07629052 -0.11175526
000150 59 aa 9f bd fb 1e 21 bd c7 7d 19 3c 17 50 0c bd
       -0.07796163 -0.039336186 0.009368367 -0.034256067
000160 26 56 a3 3d e2 81 09 be 88 7b 47 be 2f 95 41 be
       0.07975416 -0.13428453 -0.19480717 -0.18904565
000170 80 db 4a bd 42 bf cf 3c 61 0d e8 bd ec b4 47 be
       -0.049525738 0.025359754 -0.11330677 -0.1950261
000180 eb 7d 21 be 03 f3 37 3d c9 97 b4 bd c4 7b 2d 3e
       -0.1577069 0.04490949 -0.08818013 0.16941744
000190 54 ce 37 be e4 7a 7c bd 84 92 e8 3d d5 d4 63 bd
       -0.17949802 -0.061640635 0.11356071 -0.055622894
0001a0 4d 8d 4c bd 99 4c ea 3c c0 68 3f be 79 fa 27 bd
       -0.049939442 0.028600978 -0.18692303 -0.041010354
0001b0 38 1d 2d 3e 3d 89 2a bd 0a b8 46 bd f1 4e 2a be
       0.16905677 -0.041634787 -0.048515357 -0.16631676
0001c0 58 80 54 3e ac c4 59 3e 12 35 d9 3d a7 08 bb 3c
       0.20752084 0.2126643 0.106058255 0.022831274
0001d0 21 75 33 3d 05 ab 8e 3d 72 ae 4b be 64 0f a4 bd
       0.043812875 0.06966213 -0.19890764 -0.08010748
0001e0 c6 e1 d4 3b d7 bb b3 3d 0f cb 31 be 95 00 01 3e
       0.006496641 0.08776062 -0.17362617 0.12597878
0001f0 5b d7 e4 bd a0 d3 fe bc 1c 10 0c 3d c6 dd 59 3e
       -0.11173888 -0.03110677 0.03419505 0.21276006
000200 b7 4f d2 bd ac 71 c6 bd e4 6a 04 3d f0 81 29 bd
       -0.10269111 -0.0968965 0.0323285 -0.041383684
000210 bf b2 ac 3d dc ea 0e bd 5e 79 63 3c 11 66 d3 3d
       0.084325306 -0.034891948 0.013883917 0.10322202
000220 0d 72 2a 3e 84 aa 21 3e 4e f3 43 bd 93 52 5c 3e
       0.1664507 0.15787703 -0.047839455 0.21515875
000230 85 bb 5b be 61 e1 d8 3d ae c9 9a 3b 87 db 0d 3d
       -0.21458252 0.105898626 0.004723749 0.034633186
000240 f4 2b 4a bd f0 46 ef 3c a7 d2 d5 3d 10 75 25 bc
       -0.049358323 0.02920863 0.10440569 -0.010098711
000250 2b 87 24 3e 93 50 d8 bd 5f 61 ea 3c 00 2b 54 bd
       0.16067187 -0.10562243 0.028610883 -0.05179882
000260 9c 70 1b be f7 7b 19 be f0 e2 36 3b f5 6c c8 bc
       -0.15179676 -0.14988695 0.0027906261 -0.024466017
000270 b2 18 88 3d f9 18 25 bd ce d4 fa 3d 80 3a 27 3e
       0.06645335 -0.04030702 0.122476205 0.1633091
000280 4b 37 62 be 31 63 7d bd ef d1 17 3e fa 9b a2 3d
       -0.22091405 -0.061862174 0.14826177 0.079399064
000290 08 21 d0 bc 80 e1 36 bd 79 eb 89 3d 7b 1a f3 bd
       -0.025406376 -0.044648647 0.06734366 -0.11870285
0002a0 55 73 5a 3e 1c d7 45 39 eb 06 1f bd c8 77 c8 bd
       0.21333058 0.00018867519 -0.038824957 -0.097884715
0002b0 b5 c7 50 be 63 ae 0f 3e 77 74 66 bd 5c 13 42 be
       -0.20388682 0.14031367 -0.056263413 -0.18952698
0002c0 a6 55 76 bd 98 09 e9 bd 60 3a 36 bc 70 ef 06 be
       -0.060140274 -0.11378783 -0.011122316 -0.13177276
0002d0 a8 27 1e bd ff cf e5 bd 56 5a 49 3e 25 58 c9 3d
       -0.038612038 -0.11221313 0.19663367 0.09831265
0002e0 1a 5a 5f bd 4e a6 35 3e b5 3a 94 3d ae 7b 60 bc
       -0.054529287 0.17739221 0.0723776 -0.013701363
0002f0 9c 72 1a 3e 79 9f 52 be d7 e6 fc bd 26 34 77 bc
       0.15082783 -0.20568646 -0.12348717 -0.015088117
000300 2e 6e fe bd c4 a6 49 be bd b8 2f bc 6b d1 55 be
       -0.12423359 -0.19692522 -0.010725197 -0.20880668
000310 bf 3b 4f 3e 6e c9 37 be 6c 98 2f 3e 84 7d 20 3d
       0.20237635 -0.17947933 0.17147988 0.0391822
000320 44 89 1a 3e 92 3f cc 3d 5a 14 8c 3d 0d e0 30 3e
       0.15091425 0.099730626 0.06839819 0.17272969
000330 93 ea 02 3e fb f2 4c 3e 2e 2d 1f 3e de a8 0f 3e
       0.12784795 0.20014565 0.15544578 0.14029261
000340 dd 03 0e bd a8 bb a5 bc ef 31 00 3e 6e 55 ff bd
       -0.034671653 -0.020231083 0.12519048 -0.12467466
000350 e2 f6 1e 3e d0 49 5e bd 8f 3d 28 be fe 1b e9 3d
       0.15523866 -0.05426961 -0.16429733 0.11382292
000360 07 18 84 bd 49 86 7c 3d f4 33 c8 3d 59 84 34 3b
       -0.06449895 0.0616515 0.09775534 0.0027544706
000370 94 cc 42 bd f6 cb dc bd 67 e9 81 3b c4 f2 22 be
       -0.047558382 -0.1078109 0.0039645913 -0.1591292
000380 83 ae 5c 3e b0 c3 06 3c e7 d9 db 3d 10 f3 54 bd
       0.21550946 0.0082253665 0.10734921 -0.051989615
000390 01 a7 1b 3e 9d d0 41 be f5 52 bd bd 89 87 51 bd
       0.15200426 -0.18927236 -0.092443384 -0.051154647
0003a0 45 49 ec 3c 5b ad f9 bd f6 3e 87 3d df 0e 20 3e
       0.028843531 -0.12191268 0.06603806 0.15630673
0003b0 fd a8 5f 3d 69 58 e3 bd e9 30 f5 bd a5 87 53 be
       0.05460452 -0.11100847 -0.119722195 -0.20657213
0003c0 cf 00 5f 3d ca 20 29 3d a3 e7 0f be d2 5c 17 3e
       0.05444413 0.041291036 -0.14053206 0.14781502
0003d0 0c 14 ef bd b5 01 3d be 1b 71 66 3c cf 44 d8 bd
       -0.116737455 -0.18457682 0.014065052 -0.10559999
0003e0 e6 fa 48 3e 7b 84 27 3d 08 0f 13 be f6 d3 53 3e
       0.1962696 0.040897828 -0.14361203 0.20686325
0003f0 52 38 ac bd 7a 6f 92 bd de 8f 4f bd a7 50 26 bb
       -0.0840918 -0.07150169 -0.05067431 -0.0025377662

sequential/dense_1/BiasAdd/ReadVariableOp:0 f4 [64]
000000 ea 6d 1d 3c 85 19 75 bb 41 79 3c 3b 00 00 00 00
       0.009608725 -0.0037399244 0.0028758796 0.0
000010 73 8b 04 3b 8f 8b db 3a d1 3c 97 3a 70 8d 73 3b
       0.002022472 0.0016749966 0.001153851 0.003716316
000020 f4 71 92 3b 8f 2f 1c 3b 30 bc a9 bb 97 d6 f2 3a
       0.0044691507 0.0023832058 -0.0051799044 0.0018527088
000030 5b f9 4c bb 47 98 20 bc 49 d8 e7 3a 15 e1 02 bb
       -0.0031276557 -0.009801931 0.0017688359 -0.0019970585
000040 bb fd 0b 3c e0 40 36 bc 6d 7e 63 bb a9 40 d8 3c
       0.008544381 -0.011123866 -0.0034712807 0.02639802
000050 34 50 0a bc 59 aa 05 b9 ba 62 80 3b 8a 65 bc bb
       -0.0084419735 -0.00012747328 0.003918019 -0.005749409
000060 a0 4e 05 3c ad f3 97 3a 62 14 ca 3a 3d 94 55 bb
       0.008136421 0.0011593007 0.0015417452 -0.0032589578
000070 97 96 ab 3a ea 5e 04 bb a1 c1 06 bc 08 fb f4 3b
       0.0013091144 -0.0020198175 -0.008224876 0.0074762143
000080 34 5e da 3b c0 62 af ba 54 62 7b 3b e8 d7 d3 ba
       0.006664062 -0.001338087 0.0038358169 -0.0016162368
000090 00 00 00 00 e6 50 5d bb e8 eb f7 ba eb 2b d3 3b
       0.0 -0.0033770143 -0.001891491 0.0064444444
0000a0 e3 da ff bb 33 54 75 ba 7b 6e 67 ba ba 56 10 39
       -0.0078080758 -0.0009358555 -0.00088284136 0.00013765218
0000b0 fd a5 f0 3b 34 96 26 bc 3e 8c a4 ba ed 17 a8 3b
       0.007344006 -0.010167647 -0.0012554002 0.0051298053
0000c0 39 f8 61 bb 74 e1 12 3b 8f e4 c1 ba 7a 54 07 3c
       -0.0034480228 0.0022412213 -0.0014792847 0.008259887
0000d0 b1 8a 66 bb 34 d5 5c 3c 1a 8a 35 ba 9d 80 49 3a
       -0.0035177881 0.013478566 -0.0006925181 0.00076867064
0000e0 14 06 c8 39 f4 bc 73 3b 6a 4c f3 bb 47 51 a8 bb
       0.000381515 0.0037191482 -0.0074248808 -0.005136642
0000f0 f7 49 03 bc 00 00 00 00 fd 32 3b bb 3f 33 be 3b
       -0.00801324 0.0 -0.0028564327 0.005804449

sequential/dense/MatMul/ReadVariableOp:0 f4 [256, 64]
000000 9d 59 ce bd 78 51 2d bd d2 77 a7 bc 72 8c b4 bc
       -0.10075686 -0.042314023 -0.020442877 -0.022039626
000010 8a 6f 67 bd 36 f6 e9 3d d6 a3 9e bd 3b 34 48 bd
       -0.056502856 0.11423914 -0.07746093 -0.048877936
000020 b1 88 60 bd 71 03 0b be b8 60 f6 3d a1 ec e5 bd
       -0.05481786 -0.13575532 0.120301664 -0.11226774
000030 aa 4f 3f bd 93 94 1e 3d f3 d3 62 bd 23 8a cc bc
       -0.046706833 0.03871591 -0.05537791 -0.024968212
000040 e6 98 c4 bd 16 64 ec 3c f6 37 62 3d 72 40 a0 3d
       -0.095994756 0.028856318 0.05522915 0.07824792
000050 d3 1e c5 bd 31 34 f1 3d e6 ec a7 bd 53 12 e3 3d
       -0.0962502 0.11777533 -0.08199482 0.110874794
000060 a9 6e bc 3c ed b6 1b 3d 05 66 61 bd b3 96 c7 bd
       0.023001986 0.03801625 -0.055028934 -0.097455405
000070 64 1a 84 3c 1e 70 48 bd a2 7e 23 3c 04 e3 7f 3c
       0.016125865 -0.04893505 0.009978922 0.01561809
000080 54 7b 3b 3d 84 de a3 bc 10 98 65 bc 3d 5f fd 3d
       0.04577191 -0.020003565 -0.014013305 0.12371681
000090 07 0f e9 bd 3b 94 cc bc 78 d6 ee 3d f4 84 31 3d
       -0.11379819 -0.024973026 0.116620004 0.043339685
0000a0 fb b7 6e 3d d2 1b c1 bc 74 99 c2 bd c4 cb de 3d
       0.058280926 -0.023572836 -0.09501925 0.10878709
0000b0 4e 66 1d bd a7 12 19 bc 9f b3 e9 3d 24 27 3a 3d
       -0.038427643 -0.009342826 0.11411213 0.045447484
0000c0 31 39 d9 bd 96 bd 32 3d 39 09 e4 3c 5f 54 ff bd
       -0.106066115 0.043637834 0.027836429 -0.124672644
0000d0 5c 66 be 3d ef f5 8c 3c e8 41 89 3d b0 e5 80 bd
       0.09296867 0.017207114 0.06702024 -0.062938094
0000e0 2b 6e 1c bd fa bc 0d 3e ad f5 98 3d b9 37 5b bc
       -0.038191 0.1384162 0.07468734 -0.013379985
0000f0 74 69 5e bd d1 0a 0e bd 46 1c ae 3d 20 37 56 bd
       -0.054299787 -0.034678284 0.085014865 -0.052298665
000100 86 ac 4a 3c 53 69 b5 3c df 79 c7 bd d9 5e d7 3d
       0.012370234 0.022144949 -0.09740042 0.10516138
000110 16 17 d2 bd 70 7f 66 3d e9 47 ae bd 99 0e d7 3c
       -0.102583095 0.056273878 -0.085098095 0.026252078
000120 88 16 7e 3d d2 91 9d bd bb 08 90 bd 5d 95 da 3d
       0.062033206 -0.07693829 -0.07032915 0.1067302
000130 94 5c 66 3d 1a 89 cb 3c fb 1d b3 3d 7c c7 c8 3d
       0.056240633 0.024845649 0.08745953 0.098036736
000140 c0 8a 5b bc 24 2d 0e bd 12 c9 45 3d cc eb f4 3c
       -0.01339978 -0.03471102 0.04828746 0.029897593
000150 7e 32 b5 bd e5 1d 4c 3d 07 1c ae bc e9 1f 00 be
       -0.08847521 0.049833197 -0.021253599 -0.12512173
000160 53 4b 75 3d de 36 53 3d f3 ce 51 bd 87 61 07 3b
       0.059886288 0.051565997 -0.051222753 0.0020657496
000170 28 72 d8 3d 49 f3 76 3d 39 b6 3d bd 4d 0c d2 bd
       0.105686486 0.06029061 -0.04631636 -0.102562524
000180 15 bd d9 3d ab ec 72 3b 2a bc 0c be ba de 04 3e
       0.10631768 0.0037067335 -0.13743654 0.12975588
000190 cd 6f fc bd 6a cb e3 3b 3c f2 98 bd b8 73 0f 3d
       -0.12326012 0.006951739 -0.074680775 0.035022467
0001a0 b7 7f 33 bd 1b a4 bf 3d c1 8e 57 3d b0 40 d6 bd
       -0.04382297 0.093574725 0.052626375 -0.10461557
0001b0 cd 8b 41 3d bd d7 e1 3d 50 f2 7e bd 06 21 9a bd
       0.047252465 0.11027477 -0.062242806 -0.0752583
0001c0 19 16 47 3c 2d 03 ba bd 29 a9 e3 bd 0f be f9 3d
       0.012151265 -0.09082637 -0.11116249 0.12194454
0001d0 88 1c 77 bd f5 9f 4e bd 55 37 09 be 13 73 d6 3d
       -0.060329944 -0.050445516 -0.13400014 0.104711674
0001e0 27 ab 07 3c 13 96 aa bc d6 b5 4e bc b2 0a dc bc
       0.008280552 -0.020823514 -0.012616595 -0.026860569
0001f0 3a d7 ca bd 16 e8 af 3d 94 36 d9 bc a7 cc 81 bd
       -0.099043325 0.08589189 -0.026515283 -0.063378625
000200 dc b2 93 bd 16 a7 b2 bb 4c fd 8f 3d 0e f4 26 bd
       -0.07211849 -0.005452047 0.070307344 -0.040760092
000210 6e 87 d2 bd 4c 06 66 3d ad 77 02 bd a5 40 88 bd
       -0.102797374 0.05615835 -0.031852413 -0.06652955
000220 ed 66 9e bd 50 19 80 bd de bf 56 bd 13 4d 30 bc
       -0.07734475 -0.06254828 -0.052429073 -0.010760563
000230 24 b9 11 3e 48 79 cf 3d b4 fa 2d bd f9 10 f5 bd
       0.14230782 0.101305544 -0.042475417 -0.11966128
000240 42 b8 f7 3d 20 15 9b bd 50 9d bd bd e5 62 f5 3d
       0.12095691 -0.07572389 -0.092585206 0.11981753
000250 9e 49 74 3d c4 eb 0b be 19 93 a6 bc 84 40 9f 3b
       0.05964052 -0.13664156 -0.020333814 0.004859986
000260 27 cc 86 3d 0f 71 78 bd 47 a7 46 bd e4 d2 89 bd
       0.06581908 -0.060654696 -0.04849937 -0.06729677
000270 ef 16 bd 3d e7 0d 8e bc 3d c8 d6 bd b7 a7 11 3d
       0.0923289 -0.017340614 -0.10487411 0.035560336
000280 49 dd 04 be 37 9c 90 bc 85 4f bd 3c 76 ad c4 3d
       -0.12975039 -0.017652614 0.023109207 0.096033975
000290 2c 0b eb 3d 12 a9 10 be 3e 88 52 bd 59 57 e7 bd
       0.1147674 -0.14126995 -0.051399462 -0.11295957
0002a0 2b b4 f7 3d 1f 66 8e 3d 00 02 85 bd d9 f5 ec 3b
       0.12094911 0.06953072 -0.06494522 0.0072314558
0002b0 7b 41 ec 3d 4e 6a 23 bd c6 83 d2 bd 9d f6 92 3c
       0.11535927 -0.039896302 -0.1027904 0.01793986
0002c0 a1 7f f5 3b 79 41 37 3d 33 56 a5 bc 49 ac 08 3e
       0.007492021 0.044740174 -0.020182705 0.13346972
0002d0 98 22 a5 bd 85 1c db bd 71 34 2a 3c d0 96 c3 bd
       -0.08063239 -0.10698799 0.01038848 -0.095502496
0002e0 b1 c5 2a bd 48 ed 64 3d 22 ae 8a 3d 42 b1 2b 3d
       -0.04169244 0.05589035 0.067714944 0.041917093
0002f0 1b 13 de 3c c1 96 67 3d 5e 06 e7 3d 20 2c ef 3d
       0.02710872 0.056540255 0.11280511 0.11678338
000300 6c 69 ae 3c 65 ce d2 3d a5 85 2a 3d 3e d4 6f 3d
       0.021290503 0.10293273 0.04163136 0.05855202
000310 e4 d5 00 3e e2 d2 ec 3d 8e 21 43 bd 18 52 10 be
       0.12581593 0.1156366 -0.047639422 -0.14093816
000320 70 17 04 be 26 5b e0 3d 89 b3 6d 3d ac 03 07 3e
       -0.12899566 0.10954885 0.058032546 0.13184994
000330 39 e0 cd 3d 5a bc b1 3d 39 fc cc bc 57 e6 33 bd
       0.10052533 0.08678503 -0.025022613 -0.04392084
000340 ea 21 63 3d b6 11 f3 3d da 3c c2 3b 15 88 6a 3d
       0.055452265 0.118686125 0.005927664 0.057258684
000350 b9 13 b1 3c 11 aa 95 bd 1c dc 11 3d 2e 8c a5 bd
       0.02161585 -0.07307828 0.035610303 -0.08083378
000360 9a f5 b3 bd 4b df 04 3e b6 ea ba 3d 9e 09 74 bd
       -0.08787079 0.12975805 0.09126799 -0.059579484
000370 61 ce 0e 3e 7c e9 d6 3d 0e 3f 8f 3c e3 65 c9 bd
       0.13945915 0.10493752 0.017486122 -0.098338865
000380 d4 e5 f2 3d f4 7d 59 bd 44 43 c1 bd 34 85 0b bd
       0.118602425 -0.053098634 -0.09436658 -0.03406258
000390 5c 86 89 3d 54 f4 c7 bb 25 de 3d 3d 22 a3 b1 bd
       0.0671508 -0.006102124 0.04635443 -0.08673693
0003a0 84 c0 bc bd ef 43 0d 3e 3a 03 d4 bd ee 97 87 bd
       -0.09216407 0.13795446 -0.10352178 -0.06620775
0003b0 8a 38 c7 3c ba 3d 62 3c 1a 1a 8a bd af 7f d8 bd
       0.024318952 0.013808662 -0.0674326 -0.10571229
0003c0 66 f6 c7 bd 73 92 95 bd ed 3e f1 bd 95 b8 a2 bd
       -0.09763794 -0.073033236 -0.1177958 -0.079453625
0003d0 c1 38 62 3d 02 9f b1 3d 17 16 0f 3c ba 20 a3 bd
       0.055229906 0.086729065 0.008733294 -0.079652265
0003e0 dd 2d e6 bd 5e cd e7 bc 95 df 93 3b 7c 70 32 3c
       -0.112392165 -0.028296169 0.004512737 0.010891076
0003f0 75 28 dd bd b5 06 ee 3d 68 18 9b 3c 0b a0 54 bd
       -0.10798732 0.11622373 0.018932536 -0.05191044

sequential/dense/BiasAdd/ReadVariableOp:0 f4 [64]
000000 f2 c3 8b bb be a3 2a bc d7 11 f1 bb 06 f4 8d 3a
       -0.004265302 -0.010415016 -0.007356863 0.0010830171
000010 70 82 2f 3a 29 a1 03 bc d2 37 21 3c db 50 e4 bb
       0.0006695157 -0.008034029 0.009839969 -0.0069676465
000020 c5 0b 5f bc 92 e1 a1 3a 65 88 9a bb 99 df 17 3b
       -0.013613646 0.001235055 -0.0047159665 0.0023174046
000030 68 23 09 bc 50 2f 96 bb 6f 34 35 3c 7c 73 79 bb
       -0.008370258 -0.004583277 0.011059864 -0.0038063219
000040 e1 ec 98 ba a1 eb d2 bb 1d 87 d7 3b 63 dc 34 bc
       -0.0011667275 -0.0064367806 0.006577386 -0.011038872
000050 17 74 8e bc c9 54 87 3b 31 65 f8 bb 88 fb 52 3b
       -0.01738934 0.00412998 -0.0075804223 0.0032193381
000060 c4 ad 48 bc 6c 5d 08 3c f8 59 91 ba a0 2f da 3b
       -0.01224846 0.008323055 -0.0011089435 0.0066585094
000070 d6 4c da 3b 36 72 dd bb 42 d9 45 bb 48 ae af 3b
       0.0066619916 -0.006758 -0.003018931 0.005361352
000080 98 8e da ba 37 68 a3 b8 3d 0e 62 bc 05 83 bb bb
       -0.0016674576 -7.791857e-05 -0.01379734 -0.005722406
000090 00 00 00 00 1e a9 f5 39 38 50 cb bb ab c8 94 bb
       0.0 0.00046856044 -0.006204631 -0.004540523
0000a0 b6 fc 1d 3b 93 1c 40 3c 06 18 a8 bb 53 14 c0 bb
       0.0024106926 0.011725563 -0.005129817 -0.005861798
0000b0 4a b5 0f 3b a8 59 00 3c 07 66 99 3b 38 4a 74 3a
       0.0021928125 0.007833876 0.004681352 0.0009318921
0000c0 c3 60 36 3c 83 2b 9e 3b 08 6d 69 3b 4d 32 a2 3a
       0.011131468 0.0048269643 0.0035617966 0.001237461
0000d0 31 82 77 bc f8 4d d3 3b 7d 32 1b bc 2b 2f 3e b9
       -0.015106724 0.0064485036 -0.009472487 -0.00018137383
0000e0 e2 33 29 bb d0 00 a8 bb 42 91 bf 3b a1 21 1a 3c
       -0.0025818278 -0.00512705 0.0058461735 0.009407432
0000f0 a9 db b2 ba 75 66 32 3c 00 00 00 00 87 9a 13 bb
       -0.0013645786 0.0108886855 0.0 -0.0022522525

sequential/conv2d_4/Conv2D/ReadVariableOp:0 f4 [64, 64, 3, 3]
000000 ed 36 1e 3d fe 8b 8c bd cd 9d 85 3d b2 b7 92 3d
       0.0386266 -0.06862639 0.06524239 0.07163943
000010 08 4c 66 3d 23 9b b0 bc 42 6b 5f 3c 6d b5 35 3d
       0.056224853 -0.02155835 0.013636412 0.044362474
000020 dd 6e 95 bc 42 f0 09 bd 54 54 a7 bd 85 0e 13 3d
       -0.01824134 -0.033676393 -0.08170381 0.03590252
000030 e5 ae fd bb f0 92 df bc 2f 08 62 3d db e8 da 3c
       -0.0077417963 -0.027291745 0.055183586 0.026722362
000040 4c 06 8a 3d 06 93 bb b9 82 d3 96 3d af 43 33 bd
       0.06739482 -0.0003577696 0.07364561 -0.04376572
000050 77 9a a9 3b 71 b0 f6 bc d4 03 0f 3d 4a 5d 82 bd
       0.0051758843 -0.03011343 0.03491576 -0.0636545
000060 f4 00 80 bd d3 d3 62 bc ae 4b f3 bb f0 47 94 3d
       -0.06250182 -0.013844448 -0.007424793 0.072402835
000070 8c cd b3 bc ea e6 8d bc f0 de b9 3c 9f 62 d8 3c
       -0.021948598 -0.017322022 0.022689313 0.026414214
000080 86 67 f4 bb 1a 35 70 bd 3f 25 84 3c c8 08 35 bd
       -0.00745863 -0.05864439 0.016131042 -0.044197828
000090 f2 d1 45 3d 85 43 11 bd 89 ac cf bc 71 4f a7 3b
       0.048295923 -0.035464782 -0.025350826 0.0051059057
0000a0 f7 d7 c0 3c ec 37 23 3d d8 cb 93 bd 7d 88 27 bc
       0.02354048 0.039848253 -0.072166145 -0.010225412
0000b0 5b 6f 33 3d 2b a6 98 bb b3 a3 9c bd f1 49 ce 3c
       0.04380737 -0.0046584806 -0.07648411 0.025181742
0000c0 e9 4f b8 3b 50 59 82 bd 57 3a 10 bd 35 0a 8e 3d
       0.0056247604 -0.06364691 -0.035211887 0.069355406
0000d0 31 a9 ee 3c 56 ed f6 bb 28 3d d6 bb 9b e8 43 3d
       0.029133411 -0.007535617 -0.006538052 0.04782925
0000e0 f1 49 a0 bc 02 9b 74 bd 4a 0a e7 3c e2 fe 79 3d
       -0.019566508 -0.05971814 0.028203148 0.06103409
0000f0 f4 72 0d 3d 53 1d 42 3d dc 2c 40 bd 73 ae 21 3d
       0.034533456 0.047391247 -0.04691778 0.03947301
000100 53 da 0b bd ca ae 55 3c f6 5c ab 3d b6 b5 50 3d
       -0.034143757 0.013042161 0.0836734 0.050954543
000110 5b 46 f0 bb e0 81 85 3d b0 42 f5 3c 12 5c 70 3d
       -0.007332606 0.06518912 0.029939026 0.058681555
000120 ab 18 39 bd 4f 30 99 3c b4 5d 67 bd 5b 4d ea bc
       -0.04518954 0.018699793 -0.056485847 -0.02860134
000130 18 9d 33 3d fe e5 bc bc 55 b6 bb bc 94 f7 b0 bb
       0.04385099 -0.023058888 -0.022914091 -0.0054006074
000140 e1 ad 74 bc 10 5c cf 3b 33 fd 44 bd 14 df bd 3b
       -0.014934034 0.0063281134 -0.048093032 0.0057944153
000150 77 e7 3e bd 1a e3 2b 3d c6 8a 52 bc d6 2f ee bc
       -0.04660746 0.041964628 -0.012850469 -0.029075544
000160 2c a5 2f bd 95 d5 8c bc 1c 3b 56 bd 31 7f b4 3c
       -0.04288213 -0.017191688 -0.052302465 0.022033306
000170 3d 52 58 bd 9d c7 b8 bc 61 05 9a 3c 8a 3a 5e bd
       -0.052812804 -0.02255612 0.018801393 -0.054255046
000180 77 07 98 bc c7 86 04 3d c3 b9 62 3d ce c4 59 bd
       -0.018558247 0.032355096 0.055352937 -0.053166203
000190 0e e3 49 bd 6d 46 67 3d 05 2b 1c bd 05 61 d8 bc
       -0.0492888 0.056463648 -0.038126964 -0.02641345
0001a0 74 72 9a 3b ee 12 b3 3a 2c e5 13 3d 5f 49 91 3d
       0.004713351 0.0013662258 0.036107227 0.070940726
0001b0 59 99 41 bc 6d 55 81 3d 8f ca 7f bd b7 ab 38 bc
       -0.011816346 0.06315122 -0.062449034 -0.011271409
0001c0 37 8e 2f bc 27 4c 13 bd e6 a1 78 3c cd 11 e5 bb
       -0.010715059 -0.035961296 0.015175318 -0.0069906474
0001d0 5a b4 e2 3c c2 88 0b bd fd ea ff 3c 2d 37 86 bd
       0.027673889 -0.03406597 0.03123998 -0.06553493
0001e0 28 ac 4d bd e9 e2 82 bd f8 da 8f bc 89 5e 54 bd
       -0.05021301 -0.06390936 -0.017560467 -0.05184797
0001f0 5b c8 a2 3c 5b 13 84 bb 13 f7 37 bd 25 e7 10 bd
       0.019870928 -0.0040306277 -0.044913363 -0.035376687
000200 89 cf 87 3d db 3c 02 3d 3b 7b dc 3c 9b f8 97 bd
       0.06631381 0.031796318 0.02691423 -0.074204646
000210 26 e0 2c bd 5b 8b 5a 3b f5 25 51 bd 1f 75 99 3c
       -0.042205952 0.0033347222 -0.05106159 0.018732606
000220 22 f0 26 3d 32 11 d9 3c 5c e4 d4 3c 4b 9d 35 3d
       0.040756352 0.026497457 0.025987796 0.04433946
000230 f5 b9 a5 bd 87 d1 39 3d 7b 6a 85 bc a5 c2 41 bd
       -0.08092109 0.045365836 -0.016286125 -0.047304768
000240 54 2a 07 bd 55 17 01 3d 63 95 37 3d 8e 39 8c 3c
       -0.03299935 0.03151639 0.0448202 0.017117288
000250 31 d0 8c bd 34 d1 95 3d fc bf ce bc 68 88 8e 3d
       -0.06875647 0.07315293 -0.02523803 0.06959611
000260 1a f6 15 3c e0 32 40 bd 6a 87 6c bc 4c 63 dc bc
       0.0091529135 -0.04692352 -0.014436582 -0.026902817
000270 47 ea 54 bd e1 47 9d 3c 96 22 33 3d f6 8d 13 bd
       -0.051981237 0.019199314 0.043734156 -0.036024056
000280 3d 74 bc bc 36 58 ed bc 3b 28 b2 bc d2 5d a1 3c
       -0.023004645 -0.028972726 -0.021747699 0.019698057
000290 3c 52 57 3d aa ac 3a 3c cc 63 f1 3c fb d2 6c 3c
       0.05256866 0.011393705 0.029466532 0.014454599
0002a0 3a 74 0c bc 36 31 fe bc b3 e5 46 bd ae 3a b0 bc
       -0.008572632 -0.031029325 -0.048558902 -0.021512356
0002b0 d0 fb 84 bd 40 09 88 3d 0d 97 bb bc 5c 36 16 3d
       -0.06493342 0.06642389 -0.022899175 0.036672935
0002c0 7c e7 76 bb 9d dc 98 3d 91 97 bc 3c 85 df a0 bc
       -0.0037674597 0.07463954 0.023021491 -0.019637832
0002d0 5c e3 66 bd 7d 41 89 bd 8a c5 51 3d d5 67 6d bd
       -0.05636917 -0.06701944 0.05121378 -0.05796035
0002e0 3c 80 0f bd f4 41 64 3d f9 56 49 bd 39 c1 56 3d
       -0.035034403 0.05572696 -0.04915521 0.052430365
0002f0 c1 6b b6 3c fb 14 ed 3c 50 c2 b1 3c 49 6b 6b bd
       0.022268178 0.028940668 0.0216991 -0.057475362
000300 03 cf e4 3b 56 ba 87 3d 17 2d f9 bc 8b d4 99 3d
       0.0069826855 0.06627338 -0.030417008 0.075112425
000310 31 9a a1 bc bc 23 23 bd 92 5c 95 bc ff 9f 9b bc
       -0.019726845 -0.039829 -0.018232618 -0.01899719
000320 fc 1f fe 3c 5e 9a 4b 3d 39 77 31 bc 84 2d d5 bc
       0.03102111 0.049707763 -0.010831648 -0.02602268
000330 6d 12 68 3d 43 7a a3 3c 7c 26 9f 3c af d7 8d 3d
       0.056658197 0.01995576 0.01942753 0.06925904
000340 88 dd 66 ba 9f af 25 3d 2e 40 2d 3c f9 9c b7 3c
       -0.00088068144 0.04045069 0.010574384 0.022413718
000350 01 1c 54 bd 82 5b ea bc fc 95 86 3d 80 66 21 bb
       -0.05178452 -0.028608087 0.06571576 -0.0024627745
000360 b2 bc 13 bd 86 73 1e 3d 01 e9 90 3c 37 68 81 bd
       -0.036068626 0.03868439 0.01768923 -0.063187055
000370 82 23 97 3c 9a 55 5d 3b e5 23 0d bd da aa 5d 3c
       0.018449549 0.0033772946 -0.03445806 0.013529504
000380 48 74 1d bd e9 c9 98 bc 84 4a 2e bd f2 5b 54 bd
       -0.038440973 -0.018650966 -0.042551532 -0.0518455
000390 aa 0f 0e 3d 64 0a 43 bd 98 05 5d bd b1 ec 83 3c
       0.034682907 -0.04761733 -0.053960413 0.016104074
0003a0 49 d2 9d 3c 9d e0 62 bd 06 83 18 bd 88 79 56 bd
       0.01926531 -0.05538999 -0.03723433 -0.052361995
0003b0 6d 2e 9a bd 2d dc 2c bd c1 02 a8 3c e6 3a 8e bd
       -0.07528386 -0.042202163 0.020509126 -0.06944828
0003c0 11 4e 9d bd fc e2 4a 3d 8c e9 58 bd d0 a2 0b bd
       -0.076809056 0.049532875 -0.052957103 -0.034090817
0003d0 8f ac 95 bd 6a 99 57 3d 74 da 5c bd 5f f4 38 bd
       -0.073083036 0.05263654 -0.05391927 -0.045154925
0003e0 0f 10 fe b9 d8 92 87 3d f3 49 6e 3d 8e d7 80 bd
       -0.0004845862 0.06619805 0.058175992 -0.06291114
0003f0 b8 95 70 3d 54 a4 33 3b 46 bd b8 3c 7b f5 18 3c
       0.058736533 0.002741118 0.02255119 0.009335871

sequential/conv2d_4/BiasAdd/ReadVariableOp:0 f4 [64]
000000 43 41 2c bc 7f e3 fb bb 3d 92 76 3b 43 51 ed bb
       -0.0105136065 -0.0076870318 0.0037623786 -0.007242353
000010 24 6a 78 bb 3d 06 4c bc 30 21 d8 bb 13 11 01 bb
       -0.0037905062 -0.012452659 -0.006595753 -0.0019694015
000020 0d fb e0 bb fd 5d 7f 3b 27 49 7d bb 6f e7 0b bb
       -0.006865865 0.0038965933 -0.0038648339 -0.0021347662
000030 4e c9 aa bb 13 5c 0c 3b ba 29 c0 3a 3c 14 4e bb
       -0.0052119857 0.0021417185 0.0014660873 -0.0031445166
000040 ff b5 b4 3b 98 cf 1c 3b fc 64 89 ba 15 85 af bb
       0.0055148597 0.0023927446 -0.0010482366 -0.005356441
000050 40 63 7f bb f2 45 08 b9 ef b6 23 bb 34 8c 10 3b
       -0.003896907 -0.00012996027 -0.0024980863 0.0022056224
000060 ef 5d 7f 3b ae 96 30 bc 76 d2 eb b8 4f 08 21 3b
       0.00389659 -0.010778112 -0.000112448746 0.0024571603
000070 41 ed a2 3b 05 e2 88 bb 68 46 16 3b bb b5 d0 3b
       0.0049721305 -0.0041773343 0.002293015 0.00636932
000080 e4 9e 4a bb 76 87 b7 3b e1 b6 0e bb e8 cc 0e 3b
       -0.003091746 0.005600865 -0.0021776485 0.0021789614
000090 33 e4 a0 3a 65 0b b9 3b 23 55 66 bc 4c 37 cb bb
       0.001227504 0.0056471103 -0.014058384 -0.0062016603
0000a0 1d 4e 18 3b 60 75 8c b9 65 04 ef 3a 3c 9f 2c b9
       0.0023239919 -0.00026790332 0.0018235563 -0.00016462518
0000b0 50 26 d8 bb c5 80 ab bb cc 85 83 bb 7f 01 70 b8
       -0.006596364 -0.0052338564 -0.0040137526 -5.7221852e-05
0000c0 ba aa 0d bb dc 54 40 3b 9a 07 15 3c e4 b2 31 3c
       -0.0021616654 0.0029347455 0.009096051 0.0108458735
0000d0 61 23 80 3a 09 eb a0 ba 03 c1 0a 3a 2b 00 0e 3c
       0.0009776169 -0.0012277077 0.0005293043 0.008667032
0000e0 05 2f 45 bb 95 42 8c 3a 8f b7 e3 3b d3 4c 59 bc
       -0.003008784 0.0010700995 0.006949372 -0.013262945
0000f0 56 1b 6e ba 22 14 66 3c 3c dc 67 3b 40 b8 3a 3b
       -0.0009083053 0.014042886 0.0035379073 0.002849117

sequential/conv2d_3/Conv2D/ReadVariableOp:0 f4 [64, 64, 3, 3]
000000 30 63 4e bb e5 7b 07 bd 4e 5c 0a bd c3 37 05 3d
       -0.0031492226 -0.03307714 -0.033779435 0.03252388
000010 28 29 62 3d 84 1f 7f 3c c8 9a 5d 3d e7 78 1e 3d
       0.05521503 0.015571479 0.05410269 0.03868952
000020 08 68 93 bd 6c c1 56 3d e2 95 22 bd 44 d3 79 bd
       -0.07197577 0.052430555 -0.03969372 -0.060992494
000030 7e e3 eb bc 66 ab 52 bd 24 fc c6 bc f4 b5 25 bd
       -0.028795 -0.05143299 -0.024290152 -0.040456727
000040 d6 2a 80 3d 9f 35 ff 3c 8e 19 f1 3c 31 b6 5b bd
       0.0625817 0.031153498 0.02943113 -0.05364055
000050 f7 73 5b bd 9f 8e b5 3c 1c 28 b4 3c d7 4a 21 3d
       -0.05357739 0.022162734 0.021991782 0.039378013
000060 7a d5 3d bd af 3a 3d 3a 8b 45 2e 3b 12 79 10 bd
       -0.046346165 0.00072185224 0.0026591744 -0.03527171
000070 b5 dc 57 3d d5 25 a0 3c 23 da 80 bb 32 d5 54 3d
       0.052700717 0.01954929 -0.003932254 0.05196113
000080 83 32 1a 3d a0 28 16 3d f0 22 17 bc b6 51 79 bd
       0.037645828 0.036659837 -0.009224638 -0.06086894
000090 46 0e 1b bd b2 8d 95 bd a3 e0 48 3d 67 0e cb bc
       -0.03785541 -0.07302417 0.049042355 -0.024787141
0000a0 7e 9d 8a bd fa ad 81 3d 6a fb 7e 3d 7b 82 09 bc
       -0.067683205 0.063320115 0.062251486 -0.008392925
0000b0 46 b9 49 3c e8 51 08 3d fc bb e6 bb 0c ce 4e 3d
       0.012312239 0.033281237 -0.0070414525 0.05048947
0000c0 7e c1 b2 b8 d1 c2 d1 3c 69 0f 12 3b ef e1 99 3c
       -8.523742e-05 0.025605591 0.0022287017 0.018784491
0000d0 0a ed c0 bc fb 6a 50 bd 37 e9 60 3d 28 4a 3d bd
       -0.023550529 -0.050883275 0.05490991 -0.0462133
0000e0 c4 1d d0 3b e0 44 51 3d c1 1e cf bb 2c 88 d0 bc
       0.0063512046 0.051091075 -0.006320805 -0.025455557
0000f0 44 3b 97 3d 82 5d 79 3d bc 4a 5b bd f2 50 7e 3d
       0.07384351 0.06088019 -0.05353807 0.062088914
000100 82 f4 2e bd 2f 7a 78 3d f1 d9 5b 3d ed 82 58 bb
       -0.04271365 0.0606634 0.053674642 -0.0033037022
000110 0a 1c 89 3d f7 5b 87 bd 25 db be bc 60 02 1d 3d
       0.06694801 -0.06609338 -0.023297856 0.038332343
000120 2c aa 1c bd 1c f1 e0 3c 29 63 33 3d cf ec 14 bd
       -0.038248226 0.02745872 0.04379574 -0.03635865
000130 e8 93 d3 3c ae 4d db b8 79 38 c8 bc 96 81 d2 3c
       0.025827363 -0.00010457203 -0.02444099 0.025696557
000140 f3 dc 55 bc d8 49 57 bc 75 5d 1b 3c f4 37 83 3d
       -0.013053167 -0.013140164 0.009482731 0.064071566
000150 aa ca 5e bd f9 1e fa bc 6d 5a 4d bd b2 33 3b 3d
       -0.054392494 -0.030532347 -0.050135065 0.045703597
000160 65 6b 19 3b 96 c3 18 bd 3c be bb 3c cf cb b5 bc
       0.002340996 -0.0372959 0.02291786 -0.02219191
000170 52 d4 c6 bb ee 4a b3 3b 20 5b e6 bb 61 c8 38 bd
       -0.006067791 0.005471579 -0.007029906 -0.04511297
000180 9a 97 90 bd 2d 15 34 bd dc 27 56 3d 1c 70 7e bd
       -0.07060166 -0.043965507 0.052284107 -0.062118635
000190 00 18 08 bd 97 c9 02 3b 5c cc 87 3d 73 d5 1d 3d
       -0.033226013 0.0019956583 0.06630775 0.03853364
0001a0 60 7c 8d 3d 04 33 03 3c 00 e7 97 3c 94 ef 0d 3d
       0.06908488 0.008007769 0.018542767 0.034652308
0001b0 33 38 2c 3d 89 36 cc bc ef 0e 27 bc aa e2 6a bd
       0.042045783 -0.024928348 -0.010196432 -0.05734507
0001c0 4b a3 cf 3b 50 51 55 3c 2c cc 48 3c 77 73 9b bc
       0.0063366047 0.013019875 0.01225571 -0.018975956
0001d0 bc 2c ad 3c fd 2f 45 3c aa c4 29 3d 6c db 46 3d
       0.021139495 0.012035367 0.04144732 0.0485491
0001e0 38 0b 2a bd 03 e1 91 bd 2b 6b 82 3d 07 7d 46 3d
       -0.041514605 -0.07122996 0.06368097 0.04845908
0001f0 5c a1 8e bc a5 9a 92 3d 0a 8d 13 3c af 87 c5 3c
       -0.017410927 0.07158402 0.009005794 0.02411255
000200 e8 26 24 3d bf e7 dd 3c 67 24 20 3d 10 61 46 3d
       0.040076166 0.027088044 0.039097216 0.04843241
000210 97 a8 c2 bc fd 6d 63 bd e7 78 2b bd 1c 9b df ba
       -0.02376203 -0.055524815 -0.04186335 -0.0017059776
000220 5f 03 4a 3d b2 70 10 bd ae c6 a1 3d 69 14 b3 3c
       0.04931962 -0.035263725 0.07899223 0.021860318
000230 4d 83 62 bd 3e f2 40 3d 7d fb c4 bc 48 98 92 3d
       -0.055301 0.04710602 -0.0240457 0.071579516
000240 b1 71 07 3d 4b 99 71 bd f9 6d 35 bd 61 c9 33 bc
       0.03306741 -0.058984082 -0.04429433 -0.010973305
000250 d8 56 d6 bb 95 64 7c 3c 25 3a 96 3d b0 c7 69 bc
       -0.0065411143 0.01540484 0.07335309 -0.014268801
000260 bc d8 92 bc 47 fd 87 bb df ce 09 3d 72 db 4a bd
       -0.017925613 -0.004150066 0.033644553 -0.049525686
000270 94 59 8d 3c 2c 65 54 bd cd 31 d8 3c ce a5 cd 3b
       0.017254628 -0.051854298 0.026390934 0.006275869
000280 09 0e 49 bc b0 be f7 3c 0e 17 e9 3c 6e 77 0d 3d
       -0.012271413 0.030242294 0.028453376 0.034537725
000290 fe 53 47 bd c6 fd c5 ba 17 e2 83 bd da 2b 8d 3d
       -0.048664086 -0.0015105538 -0.064396076 0.0689313
0002a0 73 a7 a2 3d 4e 49 2a 3d 61 e6 54 3d 69 eb 80 3d
       0.07942095 0.041573815 0.05197752 0.06294901
0002b0 28 10 df 3c 2f a3 39 3d f3 2e 62 3d 49 8b 02 3d
       0.027229384 0.04532164 0.055220556 0.031871114
0002c0 88 f5 e7 3b 24 d9 62 3b d4 a6 92 3d 0b 62 d0 bc
       0.00707883 0.003461429 0.07160726 -0.025437376
0002d0 2f 6b 05 bd 7b 63 3e 3d 9b 7d 01 bd 11 7d 58 bd
       -0.03257292 0.04648159 -0.031613927 -0.052853648
0002e0 16 90 8b 3d 66 32 0f 3d e5 c7 66 bc da 83 e1 3c
       0.068145916 0.034960173 -0.0140857445 0.027528692
0002f0 22 9f d7 bc b6 eb 80 bc 1b 25 b6 3c 80 76 a2 bc
       -0.026320998 -0.015737396 0.02223449 -0.019831896
000300 77 fe e7 ba 43 40 63 bd ed b2 8a 3b a2 5b 4e bd
       -0.0017699738 -0.055481207 0.0042327554 -0.050380357
000310 f5 7d 79 3c 18 99 35 bd d3 a7 4c 3d a8 c2 5d bc
       0.015227784 -0.044335455 0.049964737 -0.013535179
000320 a6 fd f0 3b 26 17 a2 bc bd 48 6a 3d 49 81 4d bd
       0.007354456 -0.019786429 0.057198275 -0.050172124
000330 44 1a 49 3d 77 0b 81 bd 06 f7 01 3d 79 5a 81 3d
       0.049097314 -0.06301015 0.03172972 0.063160844
000340 28 32 c8 3c 78 35 13 3d bc a5 c6 3c e3 b7 1a bd
       0.024437979 0.035939664 0.02424895 -0.037773024
000350 54 0e de 3c 58 c8 0d bb 88 9e 7e bd 2b 65 c9 ba
       0.027106442 -0.0021634307 -0.062162906 -0.0015365233
000360 ac fe d0 bc 32 82 7e 3d e9 b5 bf b9 63 16 fe bb
       -0.025512062 0.062135883 -0.00036565893 -0.0077541335
000370 34 69 f5 bc 30 8c 9a 3c 96 d4 a1 3c a7 43 84 bc
       -0.029957391 0.018865675 0.01975469 -0.01614554
000380 75 ec 83 3c 6f c2 91 bd ed 03 cb 3c 7a 11 3e bd
       0.016103962 -0.071171634 0.024782145 -0.046403386
000390 95 84 e4 bb 6f 2d 55 bd b6 ad 33 bd 3b 70 11 3d
       -0.006973813 -0.052045282 -0.043866836 0.035507422
0003a0 a2 a4 da 3c 84 65 4e bc 07 7f 01 bd d1 80 1c bd
       0.026689831 -0.012597445 -0.031615283 -0.038208786
0003b0 fb 64 18 3d 25 ca 0b 3d 30 db 1e 3d 1a 6a a2 ba
       0.037205677 0.034128327 0.038783252 -0.001239124
0003c0 19 98 00 bd 37 05 9c bc 3d 33 36 bd 05 50 68 bd
       -0.03139505 -0.019045455 -0.04448246 -0.056716938
0003d0 22 51 54 bc 32 52 e3 3c 33 41 48 3d af c6 3e 3b
       -0.012958797 0.027749155 0.048890304 0.0029110124
0003e0 42 ed 9d 3b 68 5e 12 3d 8e f9 58 3c ce c3 ef bb
       0.004819543 0.035734564 0.013243092 -0.007317043
0003f0 3c 61 b3 bc 8d 2d 18 3d 62 0a 81 3d 60 d6 c5 3c
       -0.02189695 0.037152816 0.063008085 0.024150074

sequential/conv2d_3/BiasAdd/ReadVariableOp:0 f4 [64]
000000 ab 39 60 ba 38 2e 57 bb 60 b1 0e 3a cc 20 35 3b
       -0.0008553515 -0.0032833945 0.0005443301 0.0027637957
000010 72 c7 80 3b e8 72 05 ba 11 0c 19 3b 9c ee 9a bb
       0.0039300257 -0.000509067 0.002335314 -0.0047281515
000020 e5 96 5f bb 55 87 99 bb e9 ca 8f bb 81 22 a7 3b
       -0.003411704 -0.0046853223 -0.0043882024 0.0051005487
000030 6e 9c cf ba bc 6f 88 3b 54 e2 59 bb df 57 9d bb
       -0.0015839466 0.0041637104 -0.0033246474 -0.004801735
000040 5d da 08 3b df ce f2 3a 2e f6 6d bb ce c2 cd ba
       0.0020882108 0.0018524787 -0.0036310065 -0.0015698315
000050 ab 1f 1d 3b c7 2c 61 3b 27 81 e2 3b a6 1d ca bb
       0.0023975174 0.0034358965 0.006912369 -0.006168085
000060 a1 d1 bc bb b5 c6 07 3c 37 8d 8a 3b 11 56 0b bb
       -0.0057622944 0.008287122 0.00422826 -0.0021261016
000070 77 be c9 bb 9f a3 fb b9 72 a6 a2 ba e8 de 05 bb
       -0.0061567384 -0.00047996358 -0.0012409224 -0.0020427052
000080 9e 3c 61 bb af d2 c1 ba 02 1a 31 3b 4b 29 cd 3b
       -0.0034368406 -0.001478752 0.0027023559 0.006261026
000090 12 39 48 3b fc 90 1a 3c 65 92 63 bb 52 86 18 bc
       0.0030551595 0.009433981 -0.003472471 -0.009309368
0000a0 31 89 58 3b 54 64 10 bc 0d c8 58 3b ad f0 80 bb
       0.0033040757 -0.008812983 0.0033078224 -0.003934941
0000b0 ee 21 8d 3a ba 0f d6 ba 85 9a 47 3b 69 78 57 3b
       0.0010767558 -0.0016331591 0.003045709 0.0032878167
0000c0 5d b1 cb 3b 15 e2 f9 3b 1f 24 e1 3b a1 6d b1 3b
       0.0062162117 0.007625828 0.006870761 0.00541468
0000d0 e2 80 72 b9 9c 29 dc bb c3 6f 2a b9 cb ad fb b9
       -0.00023126931 -0.0067188274 -0.00016254098 -0.00048003937
0000e0 54 5f 3a bb 71 05 90 3b 00 d5 6f bb 2b c9 20 bb
       -0.0028438168 0.00439518 -0.0036595464 -0.0024533968
0000f0 b0 b4 7a 3b e3 d2 cf bb ce 29 2d bb 39 d6 1f bb
       0.003825467 -0.0063422783 -0.0026422623 -0.0024389161

sequential/conv2d_2/Conv2D/ReadVariableOp:0 f4 [64, 64, 3, 3]
000000 68 32 91 bd 99 b8 95 bc 42 d0 81 3d 63 1a 81 3d
       -0.07089692 -0.0182765 0.0633855 0.06303861
000010 65 e4 32 3d 1a b0 95 bc 98 9d 73 3d 1a b8 a5 3d
       0.043674845 -0.018272448 0.059476465 0.08091755
000020 1e 1c 0a 3d 93 ef 8a 3d 17 b7 3e 3d ee 56 96 3c
       0.03371822 0.067839764 0.046561327 0.018351998
000030 94 f1 43 3c 77 4a 02 3d 12 dc 9b 3c c5 05 8f bd
       0.011959452 0.031809296 0.019025836 -0.06983522
000040 aa 5c a3 bb 8c 47 79 bd 4a cf 4e bd 12 13 47 bd
       -0.0049854117 -0.060859248 -0.050490655 -0.04860217
000050 49 04 5a 3d 3e dc 0c 3d 9d ef 44 ba 36 f7 65 3c
       0.053226743 0.034389727 -0.0007512512 0.01403599
000060 69 ab 90 3c 4d 2d 80 3d a2 14 8b 3d e8 bd 06 bd
       0.01765986 0.062586404 0.06791045 -0.032895952
000070 03 c9 60 bd 9e d8 05 3d 80 6e 44 bc a8 d3 92 bd
       -0.0548792 0.032677285 -0.011989236 -0.071692765
000080 9a e7 09 bd 5d 08 ce ba 9d 35 5e 3d ba 74 39 3d
       -0.033668138 -0.0015719045 0.05425035 0.045277335
000090 8f 62 97 3c bf 65 0f bd cf 38 14 3c 6e b2 99 3d
       0.018479614 -0.035009142 0.009046747 0.07504736
0000a0 41 a7 8f 3b 04 de 16 3b 75 cd 88 3d 6b b8 56 bd
       0.004383952 0.0023020515 0.06679813 -0.05242197
0000b0 39 d1 88 3d 16 17 25 bc bf bc c8 bb 00 75 c8 3c
       0.06680531 -0.010076305 -0.006126016 0.024469852
0000c0 1a ff 84 3d 20 d8 e7 bc ab 83 dc bc aa b7 2e 3d
       0.06493969 -0.028301299 -0.026918253 0.042655624
0000d0 db a2 e0 3c a0 74 f4 3c 8f 00 97 3d a7 67 97 3d
       0.027421406 0.029840767 0.073731534 0.07392817
0000e0 74 9d 51 3d fc 64 c8 bb e1 b9 52 3d 54 6a cf bc
       0.05117555 -0.006115554 0.0514468 -0.025319256
0000f0 8b a2 7a bd d9 02 37 3d 0b 91 74 bd b3 1a 23 bd
       -0.06119017 0.04468045 -0.059708636 -0.039820384
000100 72 cf 7c 3d 4e fe 84 bc d4 d0 2e bd 12 fe 2f 3d
       0.061721273 -0.016234543 -0.042679623 0.04296691
000110 cf a4 66 3d fc 14 6a bd 62 61 8e bd 51 86 4c bd
       0.056309517 -0.05714892 -0.06952168 -0.04993278
000120 3c 22 85 3d f4 bc 9b bc e3 c7 e7 bb c6 7c cf bb
       0.0650067 -0.019010998 -0.007073389 -0.006332013
000130 a6 ca 29 3d f5 1c fb bc 21 46 49 3d ba 83 96 bd
       0.041453026 -0.030653456 0.049139146 -0.073493436
000140 a6 17 2d bd 01 a8 60 bd fe 65 f6 3b ba 87 9d bd
       -0.04225888 -0.05484772 0.0075194826 -0.076919034
000150 d4 f8 8f bd 34 aa 95 bd ab 6b 20 bd fa b5 23 bd
       -0.07029882 -0.07307854 -0.03916518 -0.03996847
000160 bb f5 85 bd 7b 14 4f 3d 29 30 2c bc 9e 01 32 3d
       -0.0654101 0.05055664 -0.010509529 0.043458574
000170 a8 3c 8b 3d 34 37 89 bd 49 6d 8c bd 08 43 5b bb
       0.06798679 -0.06699982 -0.06856782 -0.0033456702
000180 12 3f a0 bc 5c e4 34 ba 1b 0c 2f bd 9b 11 3e bd
       -0.019561324 -0.0006900483 -0.042736154 -0.04640351
000190 82 22 5e 3d 98 75 43 bd 65 ce 9c bd 46 6d a5 3c
       0.054232128 -0.047719568 -0.07656554 0.020193707
0001a0 38 88 eb bc 4a b8 67 3d fc 86 8b 3d 38 28 c9 3b
       -0.028751478 0.056572236 0.068128556 0.0061388277
0001b0 f1 df 86 3d 77 7d 14 3d 8b 5c f1 3c 58 74 29 bd
       0.06585682 0.036252465 0.029463073 -0.04137072
0001c0 00 db 80 3d 5a f2 3f bc bd 5a 01 bd 1a ed ad bc
       0.06291771 -0.011715496 -0.031580675 -0.021231223
0001d0 ba d7 74 3d f9 f1 64 3d 62 78 91 3d c6 44 10 3d
       0.059776045 0.055894826 0.07103039 0.035221837
0001e0 02 5d 5d bd e3 6d 41 bc 0c ee 78 bc c7 d5 01 bd
       -0.054043777 -0.011805984 -0.015193474 -0.031698015
0001f0 65 22 19 bc 8e 8d 4d bd 07 5b 29 3d 03 4e 45 bd
       -0.009346579 -0.050183825 0.041346576 -0.0481701
000200 c4 c9 10 3d 9a cb 59 bc 75 62 18 bd ca 88 a0 3c
       0.03534867 -0.013293171 -0.03720327 0.019596476
000210 08 69 9c 3c ee 87 21 bd 27 db 12 bd 5e f2 50 bd
       0.019093052 -0.039436273 -0.03585353 -0.05101239
000220 c8 5e ca bb e8 83 4a bd 36 bf 0a bd 84 bc 74 3d
       -0.0061758496 -0.0494422 -0.03387376 0.059750095
000230 cb a4 00 3d 45 0f 95 bc bb 03 0f bd 3a 58 3e bd
       0.03140716 -0.018195758 -0.034915667 -0.04647086
000240 88 7e 69 3d 1b 71 22 3c 4f 3d 89 3c 61 15 4e 3d
       0.057005435 0.009914662 0.016752867 0.050313357
000250 83 af 9e 3c 5c 0d 2c 3d ff 0e 16 3d 55 9d 4b bd
       0.0193708 0.042004928 0.036635395 -0.04971059
000260 2d 80 17 3d 68 84 ce bc 9a 42 c5 bc 37 c4 c5 3b
       0.036987472 -0.02520962 -0.02407961 0.0060353535
000270 0f 0e 2b bc e7 3a 3d 3d 4c 12 21 bd ed c2 16 bd
       -0.010440364 0.04619875 -0.03932409 -0.03680699
000280 9c 9e 72 3c 54 fc 48 bd 94 6e 12 bd 15 de 59 bd
       0.014808323 -0.049068764 -0.035749987 -0.05319031
000290 74 2d 95 3d e0 03 61 3c 0c 40 5c bd df 8a 94 3b
       0.0728406 0.013733834 -0.053772017 0.0045331563
0002a0 44 f3 52 3d 46 6a c2 bc 4c 5e 2f 3d 54 55 5c bd
       0.051501527 -0.023732316 0.042814538 -0.053792313
0002b0 d4 62 ec 3c 31 6a ff 3c 85 82 dd bc ea 6b 32 3c
       0.028855719 0.031178566 -0.027039776 0.0108899865
0002c0 6d af 75 bd 9e 17 68 bd 21 a0 80 bd dc 8f 99 bc
       -0.059981752 -0.056663148 -0.06280542 -0.018745355
0002d0 f7 11 35 3d 17 36 64 3d 72 fd 69 3d 9e ff c1 bc
       0.044206586 0.055715647 0.05712647 -0.023681458
0002e0 97 20 08 3d ab 25 a1 3b 71 bf 42 3d 80 ca 15 bd
       0.033234205 0.0049178204 0.047545854 -0.036570072
0002f0 55 72 1a bc 6b e3 7e 3d ad e2 c3 3c dc 6f 95 bc
       -0.009426673 0.0622286 0.023911798 -0.018241815
000300 a7 d4 c8 b9 69 c0 33 3d 33 04 29 3c fd 0e 7a bd
       -0.0003830541 0.04388467 0.010315943 -0.06104945
000310 55 62 b9 3d 0b a3 1b bd 87 07 60 bd f3 09 3c 3d
       0.090519585 -0.037997287 -0.05469468 0.045907926
000320 ab 1f ec 3b 0f 0e 31 bc 09 2a 36 3d b6 8b 53 3c
       0.0072059236 -0.0108065745 0.04447368 0.012911728
000330 5b f5 bc 3c 72 fc a9 3d f3 0d 2a 3d 56 b7 c2 bb
       0.023066213 0.08300103 0.04151721 -0.0059422655
000340 06 06 b3 3b 11 79 d5 bc 02 70 81 3b 28 cc 53 3d
       0.0054633645 -0.026058706 0.00395012 0.05170837
000350 78 21 f0 bc b0 fc f2 bc b8 1d 97 3d 51 91 ee 3c
       -0.029312834 -0.029661506 0.07378715 0.029122027
000360 b7 e2 0b 3d da bf a8 bc ce c4 f8 3c f0 fd 85 3d
       0.03415176 -0.020599294 0.030367281 0.06542575
000370 d1 e6 e1 3c 4f 06 7f 3c 02 57 38 3d d4 17 d2 3c
       0.027575882 0.015565469 0.045004852 0.025646128
000380 22 15 3e bb 2c 27 57 bd a4 75 81 bd 0d 9e 29 bd
       -0.0029004295 -0.05252759 -0.06321266 -0.041410495
000390 26 43 51 bd f5 43 42 bd 21 c3 93 bb 0d b4 42 3d
       -0.05108943 -0.04742809 -0.004509345 0.04753499
0003a0 0a c1 81 3d c3 22 c2 3c 9f 5c 4d bc b4 92 00 bd
       0.063356474 0.023698216 -0.01253429 -0.031389907
0003b0 54 91 85 bd 51 41 51 bd 13 ab 2e 3c 87 b0 79 3c
       -0.0652186 -0.05108768 0.010660904 0.015239841
0003c0 9d 2b 88 3d 5e 7d 9b bc 5b 8d 71 bd 99 d5 99 3a
       0.066489436 -0.018980678 -0.058972698 0.0011736631
0003d0 4e fb 0f bc 97 0b 7f 3b 7c e6 81 3c 86 b1 8f 3d
       -0.008787943 0.003891682 0.015856974 0.07016282
0003e0 03 30 06 3d b8 7c 6c bd cc c6 2f bd e0 91 25 3d
       0.03276063 -0.05773613 -0.042914197 0.04042232
0003f0 27 b5 0a bd 46 a9 a1 3c 8d 87 de 3c 20 b8 3d bd
       -0.033864167 0.019734036 0.027164245 -0.046318173

sequential/conv2d_2/BiasAdd/ReadVariableOp:0 f4 [64]
000000 54 3f 75 bb 8d 62 c8 ba ab f5 26 3b 9e 2c 3d bb
       -0.003742178 -0.001528816 0.002547602 -0.0028865705
000010 bc c7 51 39 56 60 98 b8 5f f1 df 3a f9 2f 9f ba
       0.000200062 -7.265869e-05 0.0017085484 -0.0012145034
000020 6d 7d 98 ba dd 0e 88 ba c1 3c 01 bb 55 6d d5 3b
       -0.001163406 -0.0010380406 -0.001972005 0.0065132775
000030 6d 40 02 3a b2 73 0d 3a 27 1c aa 3b 7c b7 5e 3c
       0.00049687066 0.0005395963 0.0051913443 0.013593551
000040 6e 01 9e ba c0 7e a8 bb 44 ca 6d 3b 32 a9 75 ba
       -0.001205487 -0.005142063 0.003628389 -0.00093712204
000050 6e a4 89 39 8d d9 b7 3a 26 b0 a1 ba c7 6e 47 3a
       0.00026253186 0.0014026627 -0.0012335822 0.00076077547
000060 a1 c5 70 3b eb 42 3c bb 7e 76 a9 bb f7 eb 54 3b
       0.003673889 -0.002872641 -0.005171596 0.0032489279
000070 72 09 25 3a d3 b9 7b ba a9 e4 9d 3a d7 9d 12 bb
       0.0006295658 -0.000960258 0.0012046295 -0.0022371912
000080 50 16 33 3a ab 29 ff 3a 60 73 4f 3b 5d 94 a8 3a
       0.0006831633 0.0019467374 0.0031654462 0.0012861599
000090 ff 42 84 ba f8 89 7c bb 93 7c 45 bb ff ca 15 3a
       -0.0010090767 -0.0038534384 -0.0030134066 0.00057141477
0000a0 30 84 62 bb c5 1f cb 39 07 e4 ad 3b 0b 3c 9b b9
       -0.0034563653 0.00038742847 0.005306724 -0.0002960864
0000b0 ae 40 c5 3b 3b e9 10 bc 2e 21 00 bb 4f 00 f8 39
       0.0060196733 -0.008844669 -0.0019551027 0.00047302476
0000c0 d9 9f 6a bb 6e b1 79 37 05 e1 8e bb 59 3f 67 3b
       -0.0035800843 1.4882868e-05 -0.0043603205 0.003528556
0000d0 f3 41 ae bb 31 3d 36 3b 55 5e 45 bb c3 5c 0c bb
       -0.0053179204 0.002780747 -0.003011604 -0.0021417595
0000e0 55 7f 1e 3b a9 d3 d5 3b 22 cf 54 bb 03 cc b0 ba
       0.0024184783 0.006525476 -0.0032472094 -0.0013488535
0000f0 1d 4a 2a 3b 67 ef cc ba 5d b1 ab ba de f9 42 3b
       0.0025984116 -0.0015635312 -0.0013099123 0.0029750983
