components/esp-dl/tools/quantization_tool/examples/M1.onnx (onnx, 858949 bytes, 16 tensors)

sequential/dense_2/MatMul/ReadVariableOp:0 f4 [64, 2]
000000 cb 3c d4 bd ad 46 86 3c 74 4a 2a 3e 91 d8 3c be
       -0.10363158 0.016391123 0.16629964 -0.18441989
000010 3d 29 05 3d 77 ab 8a be 71 68 85 be 30 4e 4b bc
       0.03251003 -0.27083942 -0.26056245 -0.012408778
000020 6b 8c cd 3c 37 fb 16 be dc 20 cf 3d ce 32 8d bd
       0.02509137 -0.14744268 0.10113689 -0.06894456
000030 d2 3f 07 3e ba 3c 92 3e fe 8d f9 bd a4 56 97 3e
       0.1320794 0.28561956 -0.12185286 0.2955829
000040 6b 27 27 be 72 aa 3b 3e 03 1b 4a be 35 86 91 3e
       -0.1632363 0.18326738 -0.19736867 0.28422704
000050 b1 12 73 3e 4d 40 7a be d8 bb 34 3e a1 ff 0f be
       0.23737599 -0.24438591 0.17649782 -0.14062358
000060 8a d0 3a 3d 34 8d 49 be 68 c8 ce bd ce de ff 3d
       0.045609035 -0.19682771 -0.10096818 0.124936685
000070 61 a4 e6 3d 58 9c c8 3d d8 1e 91 be d2 5a 67 3e
       0.112618215 0.09795445 -0.28343844 0.22593239
000080 4a 76 52 3e a9 3f 88 bd d6 1d 8e be 24 35 73 bd
       0.20552936 -0.06652767 -0.27757138 -0.05937685
000090 53 40 12 be fb b0 9c 3e d6 58 7f be 6a 78 3f be
       -0.1428235 0.30603775 -0.24936232 -0.18698278
0000a0 49 66 46 3e c5 68 98 3e 7f 16 52 be 15 70 96 bd
       0.19374956 0.29767433 -0.20516394 -0.07345597
0000b0 6f 4a bf 3d 11 3c f1 bd f0 f5 27 3e f3 d6 5f 3e
       0.09340369 -0.11779035 0.16402411 0.2185934
0000c0 5a f8 9d bd 8f 98 36 bd 90 95 98 be 3f b5 78 be
       -0.07713385 -0.044579085 -0.29801607 -0.2428789
0000d0 08 11 bd 3d ae 2a 87 be 8d 75 30 be ef 8d 48 be
       0.09231764 -0.2639975 -0.17232342 -0.19585393
0000e0 90 da da bd 23 63 4b be 35 e5 d1 bc 76 54 d3 bd
       -0.10686219 -0.19862036 -0.02562199 -0.10318844
0000f0 8c f6 00 3e a3 2f 8e be 2e f0 03 bd 6c 32 6c 3e
       0.1259405 -0.2777072 -0.032211475 0.2306611
000100 c2 5a 8d 3e 1c 65 3e 3c 7f 6a 42 be 9a ff ba 3d
       0.27608305 0.011620786 -0.18985938 0.091307834
000110 6d 1a 2a be 4f 0a 38 be d0 0f 80 be a9 44 fc bb
       -0.16611643 -0.17972682 -0.25012064 -0.0076986146
000120 db ba 56 be f5 2f 91 be ff f8 95 be d5 73 85 be
       -0.20969717 -0.283569 -0.2929153 -0.26064935
000130 e4 f5 3f bd 7a 3c 80 3d a7 d6 3a 3e 70 d8 44 be
       -0.04686536 0.06261535 0.18245946 -0.1922319
000140 22 8b 8b 3e 35 d8 75 be 54 6b 95 3c 5b cf 3a 3d
       0.27254587 -0.24008258 0.018239655 0.045607906
000150 19 fe 93 3e 5b 44 02 3e 00 c4 88 bb 80 e0 bb 3b
       0.289048 0.12721388 -0.0041737556 0.0057335496
000160 4d 46 58 be 36 a4 e3 bd 16 39 76 3e 73 c0 5d 3e
       -0.21120568 -0.11115305 0.24045214 0.21655445
000170 61 ef 54 3e 77 e3 89 be f4 6c c5 bd 75 00 78 3e
       0.20794441 -0.26931354 -0.09639922 0.24218924
000180 66 8f 70 be 39 fd 35 3c cb 39 92 be 8c d8 15 bd
       -0.23492202 0.011107736 -0.28559718 -0.03658347
000190 2d 52 6f 3e 1d 30 20 be eb dd 99 bd 35 c1 b6 bd
       0.23371191 -0.15643354 -0.075130306 -0.0892357
0001a0 dd 99 ad 3d d9 ed 91 be 4a 07 1c 3e 50 9a 2c be
       0.08476613 -0.28501776 0.15237156 -0.1685574
0001b0 d3 33 8c 3d d7 d7 88 3e 90 8e 58 3e 92 0b 33 3e
       0.06845822 0.26727173 0.21148133 0.17484882
0001c0 4d bc 85 be 9e d2 ed 3d 04 03 61 3e 1b d4 28 be
       -0.26120225 0.11612438 0.21973807 -0.16487162
0001d0 cf 45 3a 3e fa 81 9f 3d 84 a8 81 3e 66 eb e5 bc
       0.18190692 0.07788463 0.2532388 -0.028066348
0001e0 1d 32 dd 3d b1 fd 97 3e ac 82 93 3e 60 99 e4 bc
       0.10800574 0.2968574 0.28810632 -0.027905166
0001f0 78 e6 26 bd 6c 72 9b 3d c5 c4 55 3e 77 fa 42 3e
       -0.040747136 0.075901836 0.20875843 0.19040857

sequential/dense_2/BiasAdd/ReadVariableOp:0 f4 [2]
000000 d2 88 25 bb 57 6b 8b 3a
       -0.0025258553 0.0010636848

sequential/dense_1/MatMul/ReadVariableOp:0 f4 [64, 64]
000000 c0 03 59 3e 9c f5 2f 3e a2 ed 44 3d 05 77 3d bd
       0.21192837 0.17183536 0.048078187 -0.046256084
000010 c6 22 21 be 3c 09 17 3e 40 92 18 3e 61 eb 49 be
       -0.15735921 0.14749616 0.1489954 -0.19718696
000020 49 56 9f 3c 12 99 0e bd f7 29 bc bd dd 67 aa bd
       0.019450324 -0.034813948 -0.09187692 -0.083205916
000030 03 f0 3f 3e d6 49 9f 3d 09 2e 37 3e 2e a4 68 3b
       0.18743901 0.07777755 0.17888655 0.003549825
000040 1b 6f 56 3d 63 5e 1d 3e da 36 32 3e 16 cc 58 3e
       0.052352052 0.15368037 0.17403737 0.21171603
000050 2a 32 2f be f3 01 c3 bd b6 46 16 3e 45 71 2b be
       -0.1710898 -0.09521856 0.14675412 -0.16742428
000060 42 57 ba 3d 6c 37 ac bc 7f 77 32 3e ff 4e 30 be
       0.09098674 -0.021022521 0.17428397 -0.17217635
000070 b8 e0 04 3d 33 c0 1b bd 1b a5 b8 3c 25 7f 2f 3e
       0.03244087 -0.038025092 0.022539666 0.17138346
000080 9e cd 00 be db 28 55 3e 81 aa b5 bd 8e 05 c2 bd
       -0.12578437 0.20816366 -0.08870412 -0.09473716
000090 71 b8 bd 3d aa 92 3a be 63 37 b9 bd 3d a5 03 be
       0.09263695 -0.1822001 -0.09043767 -0.12856002
0000a0 14 21 a4 bd 46 ed 4e 3d 2c 49 f7 bc 02 e2 d1 3d
       -0.08014122 0.05051925 -0.030186258 0.10248186
0000b0 f1 a6 5d 3e 2d e6 7d bd e6 a1 15 be 88 aa 3e 3d
       0.21645714 -0.06198709 -0.1461254 0.04654935
0000c0 a1 b4 00 be c7 7c 2e be 18 2b 56 3e 54 87 ed bd
       -0.12568904 -0.17039786 0.20914876 -0.115980774
0000d0 1f 8e 58 3e 4f 85 1b be 46 3e 13 be cf 27 c0 bd
       0.21147965 -0.15187572 -0.14379224 -0.09382593
0000e0 09 5e 27 bd a4 a6 ba bb b3 7a e7 3d 1c 8d 47 3e
       -0.040861163 -0.0056961346 0.113027 0.19487423
0000f0 ef 3d 37 be 24 35 52 be 97 9e e7 bd b0 85 0f bd
       -0.1789472 -0.20528084 -0.113095455 -0.035039604
000100 4b 57 b3 3b fd 89 3e 3e 7e 4c 82 3c 78 f9 70 ba
       0.0054730526 0.18607326 0.015905615 -0.0009192447
000110 98 83 1d bd 61 19 3e 3e f5 19 41 3e c8 62 86 bd
       -0.038455576 0.18564369 0.18857558 -0.0656181
000120 e8 d6 34 3e aa 60 46 3e 78 8c 94 bd e4 5e 84 3d
       0.17660105 0.19372812 -0.07253355 0.064634115
000130 b1 b0 5d 3e b4 de 52 be 45 44 f3 3c 93 54 86 3d
       0.21649434 -0.20592767 0.02969564 0.065591
000140 1a f7 36 3e a2 4a 6a bd 16 74 cb bd 70 06 cd bd
       0.178677 -0.05720008 -0.09934251 -0.100109935
000150 d3 c1 ae bd 32 1c 49 3e f5 95 7f bd 6e cc 05 be
       -0.08533063 0.19639662 -0.06239887 -0.13066265
000160 f7 a4 43 be 97 15 02 be 6b 69 42 be 4f 24 e7 bc
       -0.19105898 -0.12703548 -0.18985526 -0.028215555
000170 b2 15 0f bd e2 e9 19 be b3 15 9f bd 2f e0 d7 bd
       -0.0349328 -0.15030625 -0.07767811 -0.105408065
000180 09 3d 6a 3d 2f 49 b8 bd 6b b6 03 3e f7 f6 64 3d
       0.057187114 -0.08998334 0.12862556 0.055899587
000190 d2 07 ee 3d d1 68 20 3e 1e db 37 be 13 ec ed ba
       0.11622585 0.15664984 -0.1795468 -0.0018152021
0001a0 19 82 21 bd 25 d5 1e be fa 0d f7 bc 80 1f aa 3b
       -0.03943071 -0.15510996 -0.030158032 0.0051917434
0001b0 63 b6 df bd 57 61 fd 3c 81 1e 88 bd 47 3a e1 bd
       -0.109234594 0.030930204 -0.06646443 -0.10997444
0001c0 44 6f b9 bc 6e af 5a 3e ba fe a5 3d 9e 92 21 3e
       -0.022636063 0.21355984 0.08105226 0.15778586
0001d0 10 70 e1 3d b1 9f 32 3e 09 eb 86 3d f9 71 82 3c
       0.11007702 0.1744373 0.06587798 0.015923487
0001e0 2e 9a cf bd b3 80 0a be 60 54 2a be c2 92 10 3e
       -0.10136829 -0.13525657 -0.16633749 0.14118484
0001f0 62 2e 42 be 40 8b e1 3b 71 b8 03 3e c6 77 bf bd
       -0.18963006 0.006883055 0.12863328 -0.09349017
000200 53 18 b7 bd 9f 2e 27 be 57 97 3e 3e 60 0f 17 be
       -0.08940186 -0.16326378 0.18612419 -0.14751959
000210 02 c8 30 be 8f 25 5d be d7 f2 ef bd 8c 0b 6d 3d
       -0.17263797 -0.21596359 -0.1171624 0.05787234
000220 fd 30 31 be 67 ef 2b be e9 ee 36 be 24 29 8e bc
       -0.17303844 -0.16790543 -0.17864574 -0.017353602
000230 61 99 df 3d f7 40 f5 bd 55 22 86 bd f5 7f 9a bd
       0.109179266 -0.11975282 -0.06549517 -0.07543937
000240 23 d5 3a 3e 9a 6a 80 3c 03 3e 55 be 04 6c 3d 3c
       0.18245368 0.015675832 -0.20824437 0.011561397
000250 34 c9 52 3e 3d 4c 00 be d6 c8 6d 3c f8 5d c8 bd
       0.20584565 -0.12529083 0.014513215 -0.09783548
000260 b9 46 6b 3d a4 4b 00 3d 44 c8 27 bd ac a0 cb bd
       0.057440493 0.031322137 -0.040962473 -0.09942755
000270 0c c6 3d be d1 a9 8c 3d 40 23 66 bc 21 db 23 3e
       -0.1853258 0.068683274 -0.01404649 0.1600156
000280 22 ba 8d 3d c5 b0 1d be a3 8c 94 3d ee 86 a6 3d
       0.06920268 -0.15399463 0.07253387 0.081312045
000290 a2 5d 5c be 88 cd 52 be 5b 96 42 3e 72 47 f5 3d
       -0.21520093 -0.20586216 0.19002669 0.11976518
0002a0 a7 68 4a be 64 a6 fe bc 59 f8 6f 3d 86 1a f7 3d
       -0.19766484 -0.0310852 0.058586452 0.12065606
0002b0 f1 9f 33 3e b7 29 c0 bc 80 83 b0 bd 59 45 32 3e
       0.17541482 -0.023457391 -0.08618832 0.17409267
0002c0 94 15 00 3d 19 70 10 be bf 77 5e b9 ac 30 1b 3d
       0.03127058 -0.14105262 -0.00021216179 0.037888214
0002d0 dd a5 09 bd cf 12 95 bd e8 94 0e bd 60 3f 9b bd
       -0.033605445 -0.07278978 -0.034809977 -0.07580447
0002e0 1c 04 15 3e 4d 68 88 3d 93 51 06 bd 3c fc 22 3e
       0.14552349 0.06660519 -0.03279264 0.15916532
0002f0 b5 27 14 be dc 89 78 3d e8 fe 07 be 8a 3d 0b be
       -0.14468272 0.060678348 -0.13280833 -0.13597694
000300 82 b7 27 be 4f fc 54 3c b1 cf ce bb e6 d8 d8 3c
       -0.16378596 0.012999608 -0.00631138 0.026470613
000310 29 5e aa bc ac 8d bf bd 49 d2 f6 bd 00 55 f5 3b
       -0.020796852 -0.09353194 -0.120518275 0.0074869394
000320 72 2c 3a 3d 83 4e 4e 3e 58 30 97 3d 3d e8 4a 3e
       0.045452543 0.20147137 0.07382268 0.19815154
000330 45 5a 2c be 8d fb 24 be 86 f9 86 3d 67 ea 30 3e
       -0.1683131 -0.16111584 0.065905616 0.17276917
000340 6a 97 21 3d fc c6 b0 bd 17 0c 2f 3e 8f 66 3e 3e
       0.03945104 -0.08631703 0.17094456 0.1859381
000350 ee e6 31 bd bf 24 66 bc a1 e1 e9 3d 0b 43 9b 3d
       -0.043433122 -0.014046847 0.114199884 0.07581147
000360 91 3f fc 3b fd d7 52 3e a0 b3 be 3b f7 90 04 bd
       0.0076980074 0.20590205 0.005819753 -0.03236481
000370 e9 f9 a2 3d e9 ea 0b bc 7c 13 50 bd ef 2b 4b 3c
       0.07957823 -0.008539894 -0.05079983 0.012400611
000380 94 80 5d 3e b5 46 08 be c4 c1 99 3d eb e4 c3 bb
       0.2163108 -0.13308223 0.07507661 -0.005978217
000390 e0 e1 1e be 4b 8a 1d 3e 6c 30 13 be 96 da 31 3d
       -0.15515852 0.15384786 -0.1437394 0.04342135
0003a0 d6 ea d9 3d 80 43 2c be 1a 04 2e be ca c0 d8 bd
       0.106404945 -0.16822624 -0.16993752 -0.105836466
0003b0 30 43 b6 bd 5b fa 2c be 8a d5 18 be 98 65 c0 3d
       -0.08899534 -0.16892378 -0.14925209 0.093943775
0003c0 72 cb 93 3d 72 49 9f bd a4 f8 42 ba 4a c9 43 3e
       0.072165385 -0.077776805 -0.0007437563 0.19119754
0003d0 68 57 36 be d3 9a d0 3c 11 28 83 bd 1b 21 2d 3e
       -0.1780678 0.025464451 -0.064041264 0.1690716
0003e0 79 03 2f be 76 2e 03 be 25 74 30 3e fe 47 30 be
       -0.17091168 -0.12810692 0.17231806 -0.17214963
0003f0 d1 53 fb bd 0b 9f 18 3e d0 67 28 3e f1 ac 2b 3e
       -0.12271846 0.1490442 0.16445851 0.1676519

sequential/dense_1/BiasAdd/ReadVariableOp:0 f4 [64]
000000 e6 84 93 3a e5 d1 7a 3b 4f bc 0b bb b1 5f e6 bb
       0.0011254817 0.003827208 -0.0021321957 -0.0070304503
000010 73 9d f0 3a 91 35 3b ba 3a b5 29 bc 00 00 00 00
       0.001835747 -0.0007141466 -0.010358149 0.0
000020 78 08 b6 3a a1 6c ef bb 4c 5b a2 3b c1 91 16 bc
       0.0013888022 -0.0073066507 0.004954731 -0.009190024
000030 97 12 1d 3b f6 a6 a0 3b 72 6a 86 3a e9 02 2e 3a
       0.002396738 0.004902716 0.0010255112 0.0006638007
000040 5d ed d2 3b 6a cf 12 bb b2 9f 8a 3b d5 59 c4 3a
       0.0064369873 -0.002240146 0.004230463 0.0014980385
000050 d5 0e 5a 3b 23 d0 0f 3b a2 d1 b3 ba 52 f9 28 3b
       0.0033273 0.0021944128 -0.0013719092 0.0025783372
000060 ad de 9a 3b bb 66 83 bb 71 28 af bb 69 e5 29 bb
       0.004726252 -0.004010049 -0.005345397 -0.0025924093
000070 f4 22 70 bb 0e 51 b8 bb ec 75 69 bb e3 45 79 3a
       -0.0036641927 -0.005624897 -0.0035623265 0.000950901
000080 7f 3e 7f 3c d7 1a b7 3b 27 98 e9 3b 84 e7 5e 3b
       0.015578865 0.0055879164 0.0071287337 0.0034012506
000090 0c dd 0f bb 5d ec 3e bc 46 cd c4 3b 8b 58 43 3b
       -0.0021951823 -0.011653033 0.006005916 0.0029807414
0000a0 a7 ab c4 bb 79 97 aa 3b c4 16 16 3a 00 00 00 00
       -0.006001908 0.005206045 0.0005725438 0.0
0000b0 1c b4 2d 3b 45 2a bc ba e6 1c b6 bb da 7b a5 3b
       0.0026505059 -0.0014355859 -0.005557644 0.0050501646
0000c0 73 02 d6 3a 73 c3 af bb 8c 54 6b 3a 8a fc 12 ba
       0.0016327634 -0.0053638755 0.0008977137 -0.0005607089
0000d0 bf e9 4b 39 6e 34 b4 3a 13 be 15 bc 71 a0 e3 ba
       0.00019446666 0.0013748535 -0.0091395555 -0.0017366541
0000e0 22 bd cf 3a 6c 36 9d bb c1 b4 e0 ba 14 14 25 bb
       0.0015849213 -0.0047977474 -0.0017143713 -0.002518897
0000f0 96 fc b6 39 00 00 00 00 d5 56 7a 3a 49 72 84 3b
       0.00034901936 0.0 0.0009549682 0.004041944

sequential/dense/MatMul/ReadVariableOp:0 f4 [256, 64]
000000 cc 15 7f bc ad 7d d7 3c d5 9c 32 3d fc 01 ba bc
       -0.015569162 0.026305044 0.043606598 -0.022706024
000010 2c 08 d0 bb fd d2 0b 3d d6 ec 7f bd 1a c2 41 bd
       -0.0063486304 0.03413676 -0.062481724 -0.04730425
000020 2f e5 fd 3d ec df f5 bd de 96 b1 bd 50 03 b8 bd
       0.12397229 -0.120056 -0.08671354 -0.08985007
000030 86 57 fa bd 50 35 c4 3d da 67 9a bd 67 86 aa bd
       -0.12223725 0.09580481 -0.07539339 -0.083264165
000040 d0 64 e6 3d e5 f5 d9 3d 7d 9b 9d bd 01 4d fb 3d
       0.11249697 0.10642604 -0.07695673 0.12270547
000050 09 32 f1 bd fc eb 97 bd f5 b4 08 3d 67 ea 6b bd
       -0.117771216 -0.07418057 0.0333757 -0.05759659
000060 3e 05 3e bb 78 5d c4 3d a4 df 9a 3d 07 ed 95 3d
       -0.0028994824 0.0958814 0.07562187 0.073206
000070 c2 8b 80 bd 06 d5 4c 3d 1c d7 8d 3c 3c 96 48 3d
       -0.06276657 0.050007842 0.017314486 0.0489714
000080 a9 89 cf bc 9b 5e 10 3d c1 71 a5 bd 18 b2 84 3d
       -0.025334196 0.035246473 -0.080783375 0.06479281
000090 05 bf b1 bb f1 34 df 3c 5a 91 2a bd a0 19 b3 3b
       -0.0054243826 0.027246924 -0.041642524 0.005465701
0000a0 c3 e9 bd 3d 5b 5d b2 bd d9 c0 d6 bd 79 ae 0a 3e
       0.09273102 -0.087092124 -0.104860015 0.13543119
0000b0 00 f0 e1 bb 5d 13 f2 bd be dc 63 bd 00 38 f6 bd
       -0.0068950653 -0.118200995 -0.055630438 -0.120224
0000c0 21 13 a7 bc f5 40 ed 3d 9e f3 86 bd fe 7f ce bd
       -0.020394864 0.11584655 -0.06589435 -0.10083006
0000d0 00 0f f9 bd d8 b1 90 bd 63 d2 5f 3d ee d2 ef 3d
       -0.12161064 -0.07065171 0.054644 0.117101535
0000e0 bc df 5d bd 75 8a ec 3d ae b2 3b bd ef e4 b1 3d
       -0.054168448 0.11549846 -0.0458247 0.08686244
0000f0 83 28 3d bc 8e 1e b2 bd e8 71 86 bd c7 12 b9 3d
       -0.011545303 -0.08697234 -0.06564695 0.090367846
000100 0e 97 00 bd 4c 14 01 3e 77 9d e5 bc 3c 72 1b bd
       -0.031394057 0.12605399 -0.028029187 -0.03795074
000110 97 a1 ee 3d c7 f8 e4 bd 40 17 00 3e 5d a9 29 3b
       0.116519146 -0.11180263 0.12508869 0.0025888302
000120 06 bf cb 3b f4 91 9d 3d fd e3 ec 3d 5d a0 05 be
       0.00621784 0.07693854 0.11566923 -0.13049455
000130 6a 47 f9 3d c0 b7 43 3d 12 13 e0 bd c9 66 ad bd
       0.12171824 0.04778266 -0.109411374 -0.0846687
000140 83 77 10 be d8 93 82 bd 9d e4 14 3e b7 4c c4 b9
       -0.1410809 -0.06375855 0.14540334 -0.0003744119
000150 05 56 2c 3d 40 92 25 bd 06 08 f3 3d da b2 b0 3d
       0.042074222 -0.040422678 0.11866765 0.08627863
000160 41 aa 1a 3d 74 dc e5 3d 05 4c bb 3d 35 8a 60 3c
       0.037760023 0.11223689 0.09145359 0.013704826
000170 52 c9 b6 bd bb 45 c6 bd fa c0 b8 bd 4a 3e da 3d
       -0.089251176 -0.09681269 -0.09021182 0.10656412
000180 9d 27 62 bd 35 36 f1 3c 75 6d eb 3d 41 9e ce bd
       -0.05521356 0.029444793 0.11495487 -0.10088778
000190 d4 2f c2 bd e5 ce 00 3e 9c 6b 9a 3d 82 b8 a2 bd
       -0.09481779 0.12578924 0.07540056 -0.07945348
0001a0 3d 21 0f be 38 5c 7d bc 3a 56 81 bd f6 65 ae bc
       -0.13977523 -0.015463881 -0.063152745 -0.021288853
0001b0 68 02 c1 3c 0d ad 27 bd 0c cd 9b 3d 66 99 d3 bd
       0.023560718 -0.04093652 0.07607469 -0.10331993
0001c0 63 fd 8a 3d 53 49 45 bd 81 a8 db 3d 28 32 6b 3d
       0.06786611 -0.04816563 0.10725499 0.05742088
0001d0 97 a3 39 bd 3e 58 c2 bd a5 30 ab bd 7a d7 f6 3b
       -0.045322027 -0.09489487 -0.083588876 0.007533011
0001e0 4c 4c 95 3c c8 6b 63 bd 2d 08 e5 bb fe de cb 3d
       0.018224858 -0.05552271 -0.0069895 0.09954642
0001f0 f7 49 96 bc d0 38 06 3e aa eb 7c bd 3a f6 45 3c
       -0.018345816 0.1310761 -0.061748184 0.012082631
000200 fb 0f 38 3d 76 c1 dd 3d 62 48 d2 3d f5 49 a7 bd
       0.044937115 0.10827915 0.10267712 -0.08168403
000210 a1 28 42 3d c1 4b 33 3d e7 68 a0 3d 3a c0 fa bd
       0.047402028 0.043773416 0.078325085 -0.122436956
000220 af 6d 0d bd e4 a3 46 3d f6 07 dd 3d 02 f2 9c bd
       -0.03452843 0.048496142 0.10792534 -0.07663347
000230 be 72 58 bd 68 5a 03 3e cc bb a2 bd 9b 98 65 bd
       -0.0528438 0.12827456 -0.07945976 -0.05605374
000240 47 15 85 bd aa 83 ea 3d 93 04 f1 bd 96 10 90 bd
       -0.06498199 0.11450894 -0.117684506 -0.070344135
000250 55 1f df 3d c0 bb 63 bd b9 b9 5c 3d 2c 4c 36 3d
       0.10894648 -0.055598974 0.053888056 0.044506237
000260 03 96 d4 3d cf 15 97 bd 2f 21 09 3e 30 17 9b bd
       0.10380175 -0.073772065 0.13391565 -0.07572782
000270 7f 98 e9 3d 7c b3 f2 ba 40 5a ff 3d c9 17 66 bd
       0.114060394 -0.0018516625 0.12468386 -0.056175027
000280 57 b3 15 3d 05 16 ee 3c ca 72 f5 bd 89 f4 06 3e
       0.036547985 0.029063234 -0.11984785 0.1317922
000290 b8 a6 9b 3d c7 c5 0f 3d 3b 82 c5 bd c4 c3 ce bc
       0.076001585 0.035100725 -0.0964398 -0.025239833
0002a0 81 80 95 3d c2 27 38 bd d7 94 e9 3d 7e b7 3c 3d
       0.07299901 -0.04495979 0.11405342 0.04607343
0002b0 ee d6 98 3d 36 9d 3f 3d ef e6 cc 3d ab 1d 8e 3d
       0.074628696 0.046780787 0.100049846 0.069392525
0002c0 14 8f 03 3d 39 a6 eb bc dd d1 8a 3d 89 fe 52 3d
       0.03211887 -0.028765785 0.067783095 0.051512275
0002d0 57 ea b6 3d 8d 15 88 bd 52 2e d3 bd 53 62 0c be
       0.089314155 -0.066447355 -0.10311569 -0.13709383
0002e0 a0 f1 11 be ff 33 0c bc 87 58 4b 3c 86 62 35 3c
       -0.14252329 -0.008557319 0.012411243 0.011070853
0002f0 da 41 47 3d 06 df 95 bd 57 29 c7 bc 7a 5e 55 3d
       0.048646785 -0.07317929 -0.024311705 0.052092053
000300 23 7f 26 3d 9a 9e d2 3c 2d 50 8d 3d 57 ff 01 3e
       0.04064859 0.025710393 0.06900058 0.1269506
000310 72 f6 4e 3d 4e b2 17 bb 77 74 03 be a7 71 6b 3c
       0.050527997 -0.002314705 -0.12837397 0.014370359
000320 25 4c db 3d 96 7c 8c 3c 2b e5 02 be b2 1a d5 3d
       0.10707883 0.017149251 -0.12782733 0.10405482
000330 b8 64 b6 3d dc e9 99 bc ad 07 38 3d df b0 39 3d
       0.08905929 -0.01878827 0.044929195 0.045334693
000340 70 e5 85 bd 93 c4 fd 3d f0 79 b0 bd 66 d9 5d 3d
       -0.06537902 0.12391009 -0.08617008 0.054162405
000350 b4 20 b0 3d 9b ca 9e bd a6 61 ca bc 8a e8 2b 3d
       0.085999876 -0.07753488 -0.024704766 0.041969813
000360 e6 a3 0a 3e 65 84 40 3d 04 ef 35 3d 23 e4 28 bd
       0.13539085 0.04700126 0.044417396 -0.041233193
000370 06 88 b4 bd 5d a5 57 3d 86 28 0b be c2 1b bf bd
       -0.08815007 0.052647937 -0.13589677 -0.09331466
000380 5b ed d3 3d 58 1a 5b 3d c3 dc 4f 3d 12 97 aa 3d
       0.10348006 0.05349192 0.050747644 0.083295956
000390 37 fc 95 3d 1e f8 b8 bc ca 2a 9f 3d d5 ea b9 bd
       0.07323497 -0.022579249 0.07771833 -0.09077994
0003a0 7a 7b f2 bd 56 9b c5 3d 92 7b 8b bd d6 1c 04 be
       -0.118399575 0.096487686 -0.068106785 -0.12901625
0003b0 82 ec d6 bc c0 96 01 bd 4a ba 4d bd d9 0f 2d 3d
       -0.026235823 -0.031637907 -0.050226487 0.04225144
0003c0 65 f3 d0 bd 45 04 b6 bc 91 6f 4c bd 48 8e 04 3e
       -0.10202674 -0.022218833 -0.049911086 0.12944901
0003d0 1c 2c 5f 3d 25 20 05 be cd 0c d5 bc b4 4c f7 3d
       0.054485425 -0.13000543 -0.02600708 0.12075177
0003e0 cc c0 4f bd e7 25 99 bd 17 b7 e4 3c 5f 92 f3 bd
       -0.050720975 -0.074779324 0.027919335 -0.118931524
0003f0 a0 89 05 be a0 ef f4 bd cf a2 ba bc 1c 16 3d 3d
       -0.13040781 -0.11959767 -0.022782711 0.046163663

sequential/dense/BiasAdd/ReadVariableOp:0 f4 [64]
000000 b5 d9 b9 3b 55 00 4a 3b bf 0f 61 bb 6c f9 28 bc
       0.0056717047 0.0030822952 -0.003434166 -0.010313373
000010 e2 31 c0 3b d9 cd 1a bc 08 4e ee 3b f2 f1 13 3c
       0.0058653215 -0.009448492 0.0072724856 0.009029852
000020 1c ce 1a 3b 17 a3 60 ba 80 99 75 bb 62 fa b6 bb
       0.0023621386 -0.0008569224 -0.0037475526 -0.005584047
000030 b9 1f 95 38 00 00 00 00 98 c4 f8 3a f0 a5 5b 3b
       7.1107825e-05 0.0 0.0018979488 0.0033515655
000040 8c d4 ca bb 91 c2 87 bb 28 6b b4 3b a0 8e 43 bc
       -0.0061898883 -0.004143067 0.005505938 -0.01193586
000050 9f 5a 8c ba 86 33 e1 3a ab e1 95 3b f2 9f 8a bb
       -0.001070816 0.0017181493 0.004574021 -0.0042304927
000060 2c 8a 8c bb 96 4e b5 bb c8 1d c1 38 ea 0b 2a 3a
       -0.0042889323 -0.00553305 9.208504e-05 0.00064867607
000070 32 db c9 3b 28 1c 97 3b 6f a9 a3 bb 03 5b c9 3b
       0.0061601633 0.004611511 -0.0049945633 0.0061448826
000080 7f ff d0 b9 7b 26 2d bb 01 3e ab 3b ec 6e e3 bb
       -0.0003986321 -0.0026420641 0.0052258973 -0.006940713
000090 c5 1f 3e 37 50 ac 23 bc 81 77 2f bc 00 00 00 00
       1.1332279e-05 -0.009989813 -0.010709644 0.0
0000a0 f8 6a 85 bb 7c c6 6b b8 c6 03 1b bb 7b 85 99 3b
       -0.0040715896 -5.621322e-05 -0.0023653372 0.0046851016
0000b0 35 7f 1a 39 87 23 b4 bb 02 00 3c bb 45 be a5 3b
       0.00014733973 -0.0054973993 -0.0028686528 0.0050580823
0000c0 a9 1d 39 3b 87 0c b6 bb db 11 88 bb fa 11 13 ba
       0.0028246439 -0.0055556926 -0.004152519 -0.00056102837
0000d0 ee 71 9d b6 00 00 00 00 de cf 38 3b 7b ad 9e bb
       -4.692228e-06 0.0 0.002820007 -0.004842458
0000e0 66 23 d8 bb b4 87 7f 39 fa 57 e3 bb 8c e9 d9 3b
       -0.0065960167 0.00024369248 -0.006937978 0.0066501554
0000f0 a5 c8 93 3a 00 00 00 00 7e f8 07 3a 16 9d dd 3b
       0.0011275007 0.0 0.00051868695 0.006763111

sequential/conv2d_4/Conv2D/ReadVariableOp:0 f4 [64, 64, 3, 3]
000000 b5 6d b0 3c 85 55 56 3c 0d d8 21 bd f3 87 f9 bc
       0.021536687 0.013081913 -0.039512683 -0.030460333
000010 1d 35 1d bd d1 26 8f ba 15 7a 3f bc a1 75 dd 3b
       -0.03838073 -0.0010921602 -0.0116868215 0.006758407
000020 9e 9d 65 bd aa 99 4f bd f2 57 2a 3d db 0a 73 3d
       -0.05605852 -0.050683655 0.041587777 0.059336524
000030 84 fe 83 bd 1e f0 8f bd 32 75 92 bd 17 a4 38 bd
       -0.064450294 -0.070282206 -0.071512595 -0.045078363
000040 f2 66 58 3d 04 e3 03 3d 9c 8b 17 3d 7d 62 68 3d
       0.05283255 0.03219892 0.036998376 0.05673455
000050 8b 81 9a 3d 45 bb 1b bd a1 6c 7c bd 3c ea c3 bc
       0.075442396 -0.03802039 -0.061627034 -0.023915403
000060 3f b8 60 3d ff 2e 7f bd 40 82 9a 3c 29 f9 62 3d
       0.05486321 -0.06230068 0.018860936 0.0554134
000070 54 0d a9 3c 61 5a 47 bd 19 2f 78 bd 83 eb 18 bb
       0.020636238 -0.048670176 -0.06059179 -0.0023333735
000080 66 83 a6 bc f1 2b fe 3c ec 96 83 bd b1 b2 33 bc
       -0.020326328 0.031026812 -0.064252704 -0.010967896
000090 46 b3 be bc cc 46 5b bd ab 60 b1 3c 5e 9b 7e bd
       -0.023278844 -0.053534314 0.02165254 -0.06215989
0000a0 f2 f0 99 bd aa c2 d8 ba f4 8e 7a bc 29 7e 7b 3c
       -0.0751666 -0.0016537507 -0.015292872 0.015349903
0000b0 c4 d9 cf 3c 95 3b 3e 3d 09 ed e5 3c 36 9d 28 3d
       0.025372393 0.04644354 0.028067129 0.041165553
0000c0 1a 11 d4 3c 4b 0f d2 3c 75 62 86 3d 3b 77 71 bc
       0.02588706 0.025642058 0.06561748 -0.014737899
0000d0 4e 69 3c 3d de 1c 7d bd 53 92 03 3c 93 c4 63 3d
       0.045998864 -0.061795108 0.008030492 0.05560739
0000e0 e4 ae 00 3d 5a 53 88 3c b5 dc 2c bb 9f c8 b9 bc
       0.03141679 0.016641308 -0.0026376669 -0.022678671
0000f0 56 74 1f 3d 6c 9a 4d 3b 57 17 88 bd 62 1f 35 3c
       0.038929306 0.003137256 -0.06645077 0.0110548455
000100 98 ed 96 bc f9 d1 5f bd 67 46 5f bd c3 2b 21 3d
       -0.01842384 -0.054643605 -0.0545105 0.039348375
000110 b1 f8 2c bd 67 bd 3e bd bf de 70 bd 43 bd 08 bd
       -0.042229358 -0.046567347 -0.058806177 -0.03338362
000120 46 78 10 3d 33 57 6c 3c 1f 3c 8b bd d2 9c 59 bd
       0.03527095 0.014425087 -0.067985766 -0.05312807
000130 22 eb b8 bc 39 f1 97 bd 2c 7f 30 bb 8b 0b 72 bb
       -0.022573058 -0.074190564 -0.002693127 -0.003693315
000140 e2 00 87 bc 11 24 a5 bb 41 ff 45 3d 8c 34 1b bc
       -0.016479913 -0.0050397 0.048339132 -0.009472977
000150 17 fb b0 3c 9b 2c 4b 3d 9e b4 39 bc 25 de 3c bd
       0.021604104 0.049603086 -0.011334566 -0.04611029
000160 3d 70 e6 bc fc 5c 00 bd 3b d7 3e 3c 90 d1 5a bc
       -0.028129691 -0.031338677 0.011647995 -0.013355628
000170 cc 33 46 3d 9a 15 75 3d e1 5e 02 3d bc fc 85 bc
       0.04838924 0.059835054 0.031828765 -0.016355865
000180 78 27 a0 bc 94 e0 19 bd ce dc 65 38 3b 51 c2 3c
       -0.01955007 -0.03756769 5.4803495e-05 0.023720374
000190 9c 08 64 3c 91 2f 82 3c f3 bf 80 3d 87 02 8e 3d
       0.013918068 0.015891822 0.062866114 0.06934076
0001a0 64 79 17 bd 83 4d f4 ba 6d 17 86 bd 9c dd 85 3d
       -0.036981 -0.0018638823 -0.06547437 0.06536409
0001b0 c3 78 63 3c b9 12 7a bd 15 ec 52 3d 6e 3e 5c 3b
       0.013883772 -0.06105301 0.051494677 0.0033606547
0001c0 10 ea c5 3b 14 bf 24 3d 3d 0a 92 bd 1d f8 cb ba
       0.0060398653 0.04022129 -0.07130859 -0.0015561614
0001d0 98 9a 1d 3c 2b 9a 1f bd 61 56 81 bd c9 a8 aa 3c
       0.009619378 -0.038965385 -0.063153036 0.020832436
0001e0 52 46 80 bc bb 0f 81 bd 03 a0 6f bd 6f df 90 bc
       -0.015658531 -0.063018285 -0.05850221 -0.017684666
0001f0 63 4f b6 3c 7d 68 d5 3a 9a 28 36 bd e4 ca 3a 3d
       0.022254651 0.001628175 -0.044472314 0.045603648
000200 f4 85 19 3c 6e cb 6b bd 30 51 cc 3c 18 08 6e bb
       0.009370316 -0.057567053 0.024941057 -0.0036320742
000210 f1 ab 81 3d 42 57 2d bc eb a9 ee bb e0 85 2c 38
       0.06331623 -0.010579886 -0.0072834394 4.1132676e-05
000220 e0 9b c4 bc 54 33 90 bd ad 1d 55 3d 3a 3e 7e bd
       -0.024000108 -0.0704104 0.052030254 -0.062071063
000230 c5 c7 7d 3d 6f 1e 88 3c fa ad 7d 3d 6b c4 a3 bc
       0.061958093 0.016616074 0.061933495 -0.01999112
000240 ba 16 8c 3d 95 c4 11 bd ef 5d e4 b9 ce 45 0d 3d
       0.06840272 -0.035587866 -0.00043557535 0.0344904
000250 aa eb 71 3d ee 8a 83 3d 03 f7 1d 3d 6f 2c 23 bd
       0.059062637 0.06422983 0.038565647 -0.039837297
000260 fd 5a 2c bd a9 76 5f 3d 67 74 1e 3d c2 f8 90 3c
       -0.04207896 0.054556523 0.03868523 0.017696742
000270 4b 6f e7 3c 44 9c 5d bd 7b d1 15 bb 33 48 c5 3c
       0.02825131 -0.054104105 -0.0022860456 0.024082279
000280 66 74 84 bc cf 55 37 bc b0 4c d5 bb 93 e7 1f 3d
       -0.016168784 -0.011189892 -0.006509386 0.039039206
000290 67 55 1b 3d 73 40 26 bc b5 09 39 bc 7d 38 41 3d
       0.037923243 -0.010147202 -0.011293818 0.047173012
0002a0 71 00 42 3d 6d 78 7f bd e9 ab 97 3c 0f 8f 62 3d
       0.047363702 -0.062370706 0.01851459 0.055312213
0002b0 a9 00 61 3c fb 1b ac 3c e0 a1 34 3d a4 47 2a bd
       0.013733068 0.021009436 0.04409969 -0.041572228
0002c0 1a 34 ea bc e1 1d 60 3d f2 10 62 3d 80 0d 8a 3d
       -0.028589297 0.054715995 0.05519194 0.06740856
0002d0 a5 4d 76 bd ec 2e a0 bd 44 45 59 3b f4 a9 e9 bc
       -0.06013264 -0.0782145 0.0033152858 -0.028523423
0002e0 f2 cc 3e 3c d9 83 00 3d 1b 46 fe 3c ce 21 79 3b
       0.011645542 0.03137574 0.031039288 0.0038014534
0002f0 25 16 a4 bb 26 b3 3f bd c3 52 3e 3d 70 dc 54 bd
       -0.0050075226 -0.04680171 0.046465646 -0.051968038
000300 21 99 48 3d e7 6a ea bb 6c 96 6a 3d fb 5c c1 3c
       0.04897416 -0.007153857 0.05727236 0.023603907
000310 3e c6 85 bd 63 27 87 bd 6b 24 7b bd fa 1c 46 bd
       -0.06531952 -0.06599309 -0.061314028 -0.048367478
000320 3a ba 27 3d da 1f 39 bd 1c c0 84 3d a3 18 ff 3c
       0.040949084 -0.04519639 0.064819545 0.031139677
000330 56 1d 80 39 2a 6b f8 bc 2b e6 29 bc 15 58 33 bd
       0.0002443592 -0.030324537 -0.010369818 -0.043785173
000340 83 c0 0d bd ff bd 72 bd 02 c2 84 3d 84 31 db 3b
       -0.03460742 -0.059263226 0.064823166 0.0066892523
000350 da b9 0c bd 60 25 96 3c ab 9d 5d bb 58 b3 1e 3d
       -0.03435693 0.018328369 -0.0033815901 0.038745254
000360 de 5f 7e 3d 4a ed 0d 3c b2 aa 92 bc ab 91 86 bd
       0.062103145 0.008662531 -0.01790366 -0.06570753
000370 cd 0e 61 3c 48 3e a1 bd 91 0e 5f 3d 73 d6 23 bd
       0.013736439 -0.07873207 0.05445725 -0.039999437
000380 d3 14 ea bb 70 b7 0e 3d 2e 6b 21 bd 79 01 de 3c
       -0.0071435957 0.03484291 -0.039408855 0.027100312
000390 f6 f6 89 bd 1c 5c 2d bc 68 da 9b 3d 9f cb 2b bc
       -0.06736557 -0.010581043 0.07610017 -0.010485559
0003a0 93 1d ff 3c 13 5f 68 bd 2e 92 0d 3d f1 4a 96 3c
       0.031142032 -0.056731295 0.034563236 0.018346282
0003b0 4f b0 85 bd 20 23 64 3c 2a c5 54 3d 18 d5 a2 3c
       -0.06527769 0.01392439 0.051945843 0.019877002
0003c0 e5 80 cc 3c 93 cd 40 bd 6e 50 56 3b 74 7b 93 bc
       0.024963805 -0.04707105 0.0032701748 -0.018003203
0003d0 0f 47 91 3c 4d 4f ce 3c ef 25 89 3d 28 d4 39 3d
       0.017734079 0.025184298 0.066966884 0.045368344
0003e0 92 46 21 bd 0c 6a 03 bc 20 6d 33 3d 92 6b 63 bd
       -0.03937394 -0.008020889 0.04380524 -0.05552251
0003f0 07 d7 14 3d b5 3b d1 3b fc 71 c7 bc 61 70 3f 3c
       0.03633788 0.0063852915 -0.024346344 0.011684508

sequential/conv2d_4/BiasAdd/ReadVariableOp:0 f4 [64]
000000 b7 5c 86 bb 70 b4 8e 3b 2d 8d 00 bb 89 d8 a0 bb
       -0.004100408 0.004355006 -0.0019615397 -0.0049086255
000010 03 f7 6b 3b 5a 90 d2 b8 b4 a5 e1 ba 42 1e 0c bc
       0.0036005385 -0.00010040468 -0.0017215521 -0.008552136
000020 3d 55 9f bb af 37 98 bb 75 fa 84 ba a2 70 0e 3c
       -0.004862456 -0.00464531 -0.0010145443 0.008693846
000030 75 cb 5b bb 3f 29 96 3a e9 1f b8 bb 2a b9 b3 3a
       -0.0033538018 0.0011456384 -0.0056190384 0.0013711799
000040 39 f7 80 b9 e6 6d c4 3a 2a 5f 48 bb 78 ba 55 3b
       -0.00024598258 0.0014986366 -0.00305743 0.0032612365
000050 48 e1 fa 3b 2f 16 40 3b 4a fa 8e bb 46 6f 18 3c
       0.00765625 0.0029310097 -0.004363333 0.009303873
000060 d4 03 43 3b 1c ee 0a ba 43 28 9c 3b 37 7d c4 3b
       0.002975692 -0.0005299763 0.0047655418 0.005996372
000070 4b 55 08 bb 93 41 8d 3b 27 59 b1 3b 03 16 19 bb
       -0.0020802792 0.0043107956 0.005412239 -0.0023359067
000080 1b 25 f5 bb 2f 1e 18 3c 85 2a 5b bb 9b 80 b4 bb
       -0.00748123 0.00928454 -0.0033442092 -0.005508495
000090 c6 c9 8d 39 fb be c6 bb fd 08 90 bb f0 c5 ac bb
       0.0002704395 -0.006065247 -0.0043956027 -0.0052726194
0000a0 ec 70 4d 3a 16 98 d8 3b 54 ff f7 bb 61 98 d4 bb
       0.0007836956 0.006609927 -0.0075682793 -0.0064878915
0000b0 5e 5b a7 3a d1 32 b0 bb 84 1c 47 bb 4e 42 63 3a
       0.0012768318 -0.0053771515 -0.0030381987 0.0008669243
0000c0 94 c0 a6 3b 6c 7f 18 bb 7e f3 3a bb 22 8c 8c bb
       0.005088875 -0.0023269309 -0.002852648 -0.004289166
0000d0 3b 10 6f ba 2e 66 4a bb ab 9f c8 ba d6 9f c4 3b
       -0.0009119545 -0.0030883658 -0.0015306374 0.0060004992
0000e0 5b df 89 3b 7d 00 86 3b 9d 2a 96 bb e5 4f 1a 3b
       0.0042075342 0.0040894137 -0.0045827166 0.0023546156
0000f0 db 9f 20 3a da c5 ef 3a 46 2b 7c 3b 14 06 2f 3a
       0.0006127336 0.0018293217 0.0038477941 0.0006676626

sequential/conv2d_3/Conv2D/ReadVariableOp:0 f4 [64, 64, 3, 3]
000000 21 41 65 bc 19 94 63 3d 6c 0d 3f bd d0 b4 09 3c
       -0.013992579 0.05556116 -0.04664366 0.008404925
000010 45 5f b5 3b 24 d3 fd 3c 57 0a 64 3b a3 a0 9c 3d
       0.0055350387 0.030984469 0.0034796202 0.076478265
000020 7a 09 54 bd 01 23 a1 bc 40 5e 19 3d a9 8b 9e 3c
       -0.05176685 -0.019670011 0.0374434 0.019353705
000030 62 72 36 3d 18 f2 23 3a 83 2c 50 3c ab 02 44 bd
       0.044542678 0.00062540313 0.012705925 -0.047854107
000040 a2 e4 c4 3c bc a9 f0 3c f0 cb 82 bc 9f 3e c6 3c
       0.024034802 0.02937781 -0.015966386 0.024199782
000050 04 01 7b 3b 62 ac 8d 3d 94 4f 88 3d d9 9c 88 bd
       0.0038300166 0.06917645 0.06655803 -0.06670541
000060 c4 22 78 ba 25 73 30 3d 83 de 0f 3c d3 e8 16 3d
       -0.00094656297 0.04307856 0.008781078 0.036843132
000070 28 c9 72 bd 27 5d a4 bb 49 9b a2 3d e4 96 5f 3d
       -0.05927387 -0.0050159874 0.079397745 0.05458726
000080 eb 04 1b bd bf f6 02 3d a3 dc c7 bc 15 95 08 3d
       -0.037846487 0.031973597 -0.0243972 0.0333453
000090 a5 9f 85 bd d9 eb 21 3d 16 f6 c6 ba ab 36 9d 3c
       -0.065245904 0.039531562 -0.001517954 0.019191107
0000a0 a5 f1 72 bd d3 46 52 3d 10 05 8a 3d 5d c3 9b bd
       -0.05931248 0.051337074 0.06739247 -0.07605622
0000b0 c1 fe 03 3c d4 e7 6c 3d a1 ef 00 3d 9e 5f 43 3d
       0.0080563435 0.057838276 0.031478528 0.04769861
0000c0 88 48 8a bd 4e 5d b2 3c 4c 27 4d bc d7 3f 5f bd
       -0.067521155 0.021773007 -0.012521576 -0.05450424
0000d0 89 ed 34 bd 7a 36 12 3b 91 08 9f 3d 72 f6 7c bd
       -0.044171844 0.0022310303 0.07765306 -0.061758466
0000e0 11 8d 08 bc a8 f0 ec bc 38 18 05 bd ae a5 bf 3c
       -0.008334414 -0.028923348 -0.0324938 0.023394432
0000f0 53 25 61 bd 87 5e 49 3d 40 da b5 bd 7c b7 d7 3b
       -0.054967236 0.049162414 -0.088795185 0.0065831523
000100 68 d8 c8 3c bb e4 16 bd 58 24 84 bd ed 63 5a 3b
       0.024517253 -0.036839228 -0.064522445 0.003332372
000110 4b 00 46 bd 57 1d a0 3d fa 44 51 3d 4d 7c 18 3c
       -0.048340123 0.07818096 0.05109117 0.009306979
000120 25 a0 19 3d 5a bf a9 3b 63 d5 89 bd 87 f1 39 bd
       0.03750624 0.0051802816 -0.067301534 -0.045396354
000130 d1 46 4a 3d 14 50 19 3b c4 fd 24 bd 20 6f 72 3c
       0.049383942 0.0023393678 -0.040281072 0.014797002
000140 ff bb 03 bd 6a 9d 3a 3c e7 57 fb bc 9c d5 3f bd
       -0.03216171 0.0113900695 -0.030681564 -0.046834573
000150 aa b5 37 3d 7a 08 11 3d c8 d4 e1 3b 60 da ae 3b
       0.044850983 0.035408475 0.0068918206 0.005336091
000160 e9 3b df bc 58 2a a2 3c d5 5f 1e 3d 4d 77 28 3d
       -0.027250247 0.019795582 0.03866561 0.0411294
000170 38 08 23 bd 69 a6 12 3d 2e 13 40 3d 24 c4 c9 bb
       -0.03980276 0.035803232 0.04689329 -0.006157415
000180 b6 73 1f 3d ef 1a 3a 3d c5 ce 5f 3d 99 2c f9 bc
       0.03892871 0.045435842 0.05464055 -0.030416774
000190 37 1a b6 3d b6 1b ba bc eb 99 ab bc 30 60 26 bc
       0.08891719 -0.022718292 -0.020947417 -0.010154769
0001a0 1f 2b 52 bd 3c 02 9e bc d5 bd 28 3d 1d 04 31 3d
       -0.051310655 -0.019288175 0.041196663 0.043216813
0001b0 68 82 ac bc 1d a7 78 3d 7e 54 af bc 7a 66 1d 3b
       -0.021058276 0.060706247 -0.021402594 0.002401738
0001c0 8c 22 9b 3d cd 86 ae 3d 09 30 4d 3d 35 f4 86 bd
       0.07574949 0.08521805 0.050094638 -0.065895475
0001d0 2b fe f6 bc a6 52 ff bc 01 36 45 3b 95 c8 f0 3b
       -0.030150494 -0.03116734 0.0030092003 0.00734813
0001e0 86 84 3d bd f4 bb a4 bc a8 63 93 3d 39 82 5b 3d
       -0.046268962 -0.020109154 0.07196742 0.053590987
0001f0 63 55 98 3b 98 4d 36 3d c6 76 08 3d 7c 5a 5b bd
       0.0046488508 0.044507593 0.033316396 -0.05355309
000200 45 18 f0 3c 7c a8 0b 3d 66 7f 90 3d 92 3f 2f bd
       0.029308448 0.034096226 0.07055549 -0.042785235
000210 fd 42 77 3d 9b 53 46 bc ab 51 6b bd e6 3a 1b 3c
       0.06036662 -0.012104894 -0.05745093 0.009474492
000220 68 5f 86 bd ac ec 61 bd c0 b4 69 3d 2d ec 73 bd
       -0.06561166 -0.05515735 0.057057142 -0.059551407
000230 ff 61 26 3c bb f0 1a bc e0 b5 14 3c e2 41 1b bb
       0.0101552 -0.009456809 0.0090765655 -0.0023690392
000240 a3 c4 10 3d e3 8c f1 bc 56 72 b0 3b a6 bf 04 3d
       0.035343777 -0.029486125 0.0053847237 0.032409333
000250 09 42 bf bb d6 29 11 3d 17 86 26 bc f6 8d 90 3c
       -0.0058367294 0.03544029 -0.010163805 0.017645817
000260 33 f2 a2 3d ff 24 e8 3c 31 fc 85 3c fa c7 51 3d
       0.07956352 0.028337954 0.016355606 0.051216103
000270 6e ab 43 bd 1f 0d 05 bd 75 1d 41 3d 00 69 04 3c
       -0.04777091 -0.032483216 0.047147233 0.008081675
000280 12 9c 9f 3d 0b d3 cc 3c 87 44 36 bd 8b 1f 26 bd
       0.0779344 0.025002977 -0.044498947 -0.040557425
000290 6d 44 8b 3d 3a 7b a5 3c f1 91 b1 3c a0 b5 82 bd
       0.068001606 0.02020036 0.021676036 -0.063822985
0002a0 6c 8d 9a bb b0 4d 6c bd 5d c5 6f 3d 66 8f 1b bd
       -0.004716566 -0.057691276 0.05853783 -0.037978552
0002b0 0a d8 3d 3d 53 bf e3 3b 91 69 87 3d a4 b3 16 bd
       0.04634861 0.006950298 0.06611932 -0.036792412
0002c0 b9 b7 83 bd 43 3e 3f 3d 1c 09 07 bd ed bf 3a bd
       -0.06431527 0.046690237 -0.03296767 -0.04559319
0002d0 d0 2f e7 3a 5c d3 3d bd 3f 88 73 3d a2 8f 86 bb
       0.0017638151 -0.046344146 0.059456106 -0.004106478
0002e0 b1 85 83 bc 92 88 8d 3d c2 f8 92 bd 32 d5 90 3d
       -0.01605496 0.06910814 -0.07176353 0.07071914
0002f0 98 6b 11 b9 0a 16 8a bc 0a f3 62 bd 5f af 4a 3c
       -0.0001386836 -0.016856212 -0.05540756 0.012370913
000300 1c 76 e2 3b 9c 0d 62 3c a7 b6 bb 3b 84 24 30 3c
       0.0069110524 0.01379719 0.005728561 0.0107508935
000310 ef a0 8c 3d fe 82 19 3d d7 f6 3a bc 40 78 28 bc
       0.06866633 0.03747844 -0.01141139 -0.010282576
000320 cb fa 15 3d e4 88 77 bc bb 2e 02 3d 5b 05 23 bb
       0.036616128 -0.015108321 0.031782847 -0.0024875018
000330 1a 57 36 bd 7d 14 38 3c ae 13 b9 3c 90 76 cf bc
       -0.04451666 0.011235354 0.022592392 -0.02532509
000340 6f 3f 90 bc 7e fe 31 bc f7 8e 47 3d 95 73 15 bb
       -0.017608372 -0.010863898 0.048720326 -0.0022804488
000350 1e 70 1c bd 08 38 67 3d b9 4d 47 bc c9 eb 80 bd
       -0.03819286 0.05644992 -0.012164527 -0.062949724
000360 66 4c 3f bd ba bb 53 3d 3d 8d 86 3d 37 0e 5e bc
       -0.04670372 0.051692702 0.06569908 -0.013553194
000370 54 6a 7b bd dc 03 93 3d 95 fb 85 bc 03 ba 09 bd
       -0.0613807 0.071784705 -0.016355315 -0.03362466
000380 f9 8b 28 bd 12 37 a4 3d 56 ef 50 bd a8 0b f4 3c
       -0.041149113 0.08018316 -0.0510095 0.029790714
000390 c8 1b 35 3d c9 19 97 3c 97 38 0a 3d a1 85 3f 3d
       0.044215947 0.018444913 0.033745375 0.046758298
0003a0 42 f5 43 bc d7 b2 3a 3d 6f c4 73 3d 82 c1 a3 3c
       -0.0119603295 0.04558071 0.059513506 0.019989733
0003b0 27 c0 60 3d 48 a0 47 bd e6 13 22 bd 6f 8c 70 3d
       0.05487075 -0.04873684 -0.039569758 0.058727678
0003c0 a9 0e 60 bd 2d a8 ad ba 0d dd 73 3c a9 2f 1b 3d
       -0.05470148 -0.0013248973 0.014884246 0.03788725
0003d0 5a 23 71 3d 7f 11 03 bd e5 d4 fd 3c 7e b1 26 bb
       0.058871605 -0.031999107 0.030985305 -0.0025435383
0003e0 65 f1 37 3d 28 b3 5a bc cb b4 41 bd d6 77 c7 3c
       0.044907946 -0.013348378 -0.04729156 0.024349134
0003f0 b4 e9 90 3d 59 c0 a4 bd 75 39 cd 3c 6b f5 1f 3d
       0.07075825 -0.080445 0.025051812 0.03905241

sequential/conv2d_3/BiasAdd/ReadVariableOp:0 f4 [64]
000000 84 9d dd ba 1a fc 55 3b c1 ea 03 3a da 7b cc bb
       -0.0016907905 0.0032651485 0.00050322345 -0.00624035
000010 0a 83 e1 ba 03 60 2d bc bd 2c ce 39 a0 0a 19 3c
       -0.001720519 -0.010581973 0.00039324714 0.009340912
000020 77 3b 08 bb b9 72 85 bb 10 b8 94 3b 23 9f a8 bb
       -0.0020787397 -0.004072514 0.0045385435 -0.0051459237
000030 bb c6 f2 3b 24 ee c7 3b cb 77 59 3a 19 57 97 3b
       0.0074089444 0.0061013866 0.00082957436 0.004618537
000040 b0 78 8b ba 1a dc 29 bb 2a 99 74 bb fe 68 8f 3b
       -0.0010640826 -0.0025918544 -0.0037322738 0.0043765297
000050 4c 65 a5 bb 5f cd 0c bb 53 63 b9 b9 22 58 0b 3b
       -0.005047476 -0.0021484715 -0.00035359952 0.0021262248
000060 b2 55 e2 b9 2e e2 35 ba a0 48 90 3b 0e aa 4b ba
       -0.00043169927 -0.00069383055 0.004403189 -0.00077691756
000070 47 76 01 bc 6d 0c 35 ba 83 8e 9d bb 59 82 db 3a
       -0.007901735 -0.00069064536 -0.0048082485 0.0016747221
000080 43 2c 00 bb b8 a6 0a b9 82 59 23 3a 4b c9 b2 3b
       -0.0019557632 -0.00013222813 0.0006231294 0.005456125
000090 9b 2d 93 bb c4 ac 0c 3a 9f 75 80 bb 7f 4c 03 ba
       -0.0044915206 0.000536632 -0.0039202715 -0.0005008652
0000a0 73 b5 16 3b 7b f9 17 ba cf 8e 51 3b 23 4e a7 3a
       0.0022996336 -0.00057973684 0.003197599 0.0012764375
0000b0 31 db c7 3a 25 de d7 3b 3a a7 03 bc 81 9b 69 3b
       0.0015247819 0.006587761 -0.008035475 0.0035645666
0000c0 f3 50 2b 3b 23 33 55 bb d2 00 87 3a e5 86 58 3b
       0.0026140779 -0.00325317 0.0010299927 0.0033039388
0000d0 f2 ce 95 ba ca 62 c1 3a a6 96 1e 3c 2c 4c 40 bb
       -0.0011429472 0.0014754173 0.009679472 -0.0029342277
0000e0 0a 6e 24 bb 13 41 2e bb 65 94 16 3b da 84 1d bb
       -0.0025090002 -0.002658908 0.0022976634 -0.0024035485
0000f0 c4 61 13 bb ff 69 0a bb 0d 81 4b bb 09 1e 1f bb
       -0.0022488693 -0.0021120308 -0.0031052262 -0.0024279377

sequential/conv2d_2/Conv2D/ReadVariableOp:0 f4 [64, 64, 3, 3]
000000 c4 a7 a0 bc dd ca a7 bc ee 4b 07 bd 01 03 7d bd
       -0.019611247 -0.020482475 -0.033031397 -0.061770443
000010 dd ba 37 bd 6d cd 1a bd 7b d9 f2 bb 28 f4 91 bd
       -0.04485594 -0.037793566 -0.0074111796 -0.07126647
000020 95 ec 28 3d c5 33 ef 3c 46 93 d1 bb 5f bb 3e 3b
       0.041241247 0.02919949 -0.00639573 0.002910338
000030 18 33 1b bc f3 e3 38 bd 3e a9 5d bd dd 5d 49 3d
       -0.009472631 -0.045139264 -0.05411648 0.04916178
000040 cb fd 5d bc 22 9e 35 bc 8d 71 75 b9 42 bd 06 bd
       -0.0135492785 -0.011085065 -0.00023407322 -0.032895334
000050 56 06 54 3d 5b 4b 03 3d 38 db 7b 3d ca 6e b4 bc
       0.051763855 0.032054286 0.06148836 -0.022025485
000060 0a 12 77 3d b4 14 6b bd d8 c2 7f 3d a3 a9 5f 3d
       0.060319938 -0.05739279 0.062441677 0.054605138
000070 e9 8c e0 bb 33 05 08 3d 26 49 7a bd 64 6b 80 bc
       -0.0068527353 0.033208083 -0.061104916 -0.015676208
000080 ca 74 cc bc f6 14 21 bd 40 41 47 bc 5a 2b 28 bd
       -0.024958033 -0.03932663 -0.012161553 -0.04105697
000090 fe e1 55 bd 55 37 96 bd f2 97 3a 3c e9 db 55 3c
       -0.052217476 -0.073347725 0.011388766 0.013052919
0000a0 66 e1 88 bd 70 ec 8c bc 7d 0d aa bc ee 24 cc bc
       -0.06683616 -0.017202586 -0.020758385 -0.024919953
0000b0 f3 0c 7c 3d 2d b3 95 bc 6f 95 6d 3d f1 b5 73 3d
       0.061535787 -0.018273914 0.05800384 0.059499685
0000c0 49 f3 fe ba dc 23 29 bd b8 47 26 3d df 98 e8 3c
       -0.0019451167 -0.041293964 0.04059574 0.028393207
0000d0 9e 2f 2c bd eb 39 5d bd f9 d5 8f bd 22 96 58 3c
       -0.0420376 -0.054010313 -0.07023234 0.013219388
0000e0 eb 12 9d 3c f8 8d 86 3d 1f 0c 5e 3d 04 4d 6b 3b
       0.01917406 0.06570047 0.05421078 0.003590406
0000f0 37 77 26 3d bf a1 62 bd b8 0f 8c 3c 79 42 e6 3b
       0.040641036 -0.055330034 0.017097339 0.007026967
000100 96 df 60 3d 14 6d 40 bc 4f c2 be bb 8b 27 53 3d
       0.05490073 -0.011744756 -0.0058215032 0.051551383
000110 32 35 42 bc d3 e3 ad bc ee dc 33 3d 6c 3f 06 bc
       -0.011853503 -0.0212268 0.043911867 -0.008193832
000120 59 6f 89 3c 71 c2 68 3c 3d 32 11 3d 76 b5 6a bd
       0.016776728 0.014206515 0.0354483 -0.05730196
000130 e8 17 87 3d cc 62 91 bc b4 2b 5a bd e8 b1 9e bd
       0.06596357 -0.017747305 -0.053264335 -0.07748777
000140 77 e2 34 3d 79 49 d1 3b 0f de 8b 3d 61 47 62 3d
       0.044161286 0.0063869325 0.06829464 0.055243853
000150 16 b7 f3 3b e1 1a e0 bc 30 63 94 bc e4 6a 4a 3b
       0.007437597 -0.027356567 -0.018113703 0.0030886466
000160 74 09 28 3c b9 c2 e4 bc cf 1e 82 3d 29 20 b8 bc
       0.01025616 -0.027924882 0.063535325 -0.022476273
000170 60 6f 4b 3d f6 8c 6e 3d 53 1f 92 bd 9c 92 92 bd
       0.049666762 0.0582399 -0.07134881 -0.0715687
000180 f5 ed 48 3d a1 2e 87 bd 60 90 f5 bc 6f fe 8e 3d
       0.04905506 -0.06600691 -0.02997607 0.06982123
000190 83 35 4e bd dc 7a 90 bc 87 e2 06 bd c8 d9 8b bc
       -0.050344 -0.017636709 -0.032930877 -0.01707162
0001a0 b7 f9 8a 3a 2c 11 f6 3c 69 85 2e 3d b6 a5 24 bc
       0.0010602985 0.030037485 0.0426077 -0.010049274
0001b0 de 44 46 bd 92 72 c6 bc e3 a9 15 3d d3 3b 7f bd
       -0.04840552 -0.024224553 0.03653897 -0.062312912
0001c0 b2 ff 8c 3d 37 ff 74 bd e5 8c 61 bd 08 d2 9d bc
       0.068847075 -0.059813704 -0.055066008 -0.01926519
0001d0 01 ed 33 bd 05 78 0b bd e1 32 e1 bc f4 49 82 bd
       -0.043927196 -0.034050006 -0.027490081 -0.06361762
0001e0 5c 2e 43 3d 51 d1 6d bb f5 c4 78 bd ca 35 8b 3c
       0.047651634 -0.0036288092 -0.060734708 0.016993422
0001f0 44 e2 78 3d f1 40 04 bd 48 87 90 ba d0 ce dd 3c
       0.06076266 -0.032288495 -0.0011026645 0.027076155
000200 1b 5f a6 bc 5f 8f 55 bd b1 62 5c 3d bd db 36 3d
       -0.020309022 -0.052138682 0.053805057 0.044643153
000210 1c 80 4d 3c c7 77 1d 3d 36 c6 88 3d 76 83 b7 3c
       0.012542751 0.038444307 0.06678431 0.022401553
000220 34 c9 9f bc b7 3b 3f bd 44 9e 25 3d c4 36 2a bd
       -0.01950512 -0.046687808 0.040434137 -0.041556135
000230 95 fe 6d 3d 45 10 77 bc 51 39 82 3a 5f 36 49 bd
       0.058104116 -0.015079563 0.0009935295 -0.049124118
000240 33 6e 3d 3d 3d f9 09 3d f7 65 a0 bb 72 11 88 bd
       0.046247672 0.033684958 -0.0048949677 -0.066439524
000250 f9 b1 d9 3c 80 69 81 bd dd d9 3b bd ca 75 82 3d
       0.026574122 -0.06318951 -0.045862067 0.06370123
000260 e7 c7 4e bd 49 e6 b0 bb 7c a1 1f bc 46 25 a4 bc
       -0.05048361 -0.005398546 -0.009743091 -0.020037305
000270 8d d5 30 3b 73 9f 00 bc 80 bb 8b bd f9 3b 82 bb
       0.0026982755 -0.007850516 -0.06822872 -0.0039744345
000280 3e 1c 2c bc 5f 7c 52 bd b4 17 88 3d 9a 4b 37 bd
       -0.01050478 -0.05138814 0.06645146 -0.044749834
000290 0b de 28 3d 2d 31 8c 3c 34 59 2d 3c e3 6b 86 3d
       0.04122738 0.017113293 0.01058035 0.065635465
0002a0 31 8c 1d bd 9d f7 a6 bc a6 46 7e 3d 94 2a 8c b9
       -0.038463775 -0.020381743 0.062079094 -0.00026734604
0002b0 a5 0f 6e bc 57 23 03 bd 39 57 81 3c bc e1 9c ba
       -0.014530097 -0.032016125 0.015788661 -0.001196913
0002c0 92 b8 8e bd 16 b7 5b 3c 93 38 0b 3d 71 9b ec 3c
       -0.06968798 0.01341035 0.0339895 0.028882714
0002d0 18 3e 99 bd 26 2f 52 bd ec 48 78 3d 01 48 dd bc
       -0.074825466 -0.051314496 0.06061642 -0.027011873
0002e0 46 d0 8d 3d 37 33 e9 3c 22 56 ae bc 3f c2 04 3d
       0.06924491 0.028466804 -0.021281306 0.03241181
0002f0 7c e1 c7 bc 63 7d 20 3d 37 d1 b6 39 87 33 19 bd
       -0.024399512 0.039182078 0.00034869622 -0.037402656
000300 7e 37 81 3d 94 a6 1a 3d 1c 85 5e 3d 26 86 50 bd
       0.063094124 0.037756518 0.05432616 -0.050909184
000310 2c 64 8b bc 13 76 a1 bb ce de e8 bc 39 ad 90 bd
       -0.01701554 -0.0049274056 -0.028426554 -0.070642896
000320 52 b3 82 3d 62 ed 5d 3d 25 20 5a bc 36 b0 da 3a
       0.06381859 0.054181464 -0.013313328 0.0016684595
000330 1f 4a 65 bc b9 18 5d bb fb 03 8a 3b f3 8e 02 bd
       -0.013994723 -0.003373666 0.0042119003 -0.03187461
000340 19 69 2d ba f5 07 61 bd c7 52 0f bd b6 1b 18 3d
       -0.0006615087 -0.05493923 -0.034991052 0.037135802
000350 e0 89 5e bd 9c 1d f4 bc 6e d6 30 bc 8f cf 30 3d
       -0.054330707 -0.029799275 -0.0107933115 0.043166693
000360 5e d1 6a 3d 0b 7b 80 3c 34 52 04 3c 46 57 64 bd
       0.057328574 0.015683671 0.008076239 -0.055747293
000370 96 72 b0 3c af 67 42 3d fb 71 86 3c b1 87 58 bd
       0.021539014 0.04746216 0.016411772 -0.05286378
000380 d1 b2 11 bd 16 ca 89 bd 1f 3f 88 3d bb f7 d8 bc
       -0.035570923 -0.06727998 0.066526644 -0.026485315
000390 11 f7 b4 3c 15 5b a5 bc d8 6b 59 bd e2 e8 0b 3d
       0.022090467 -0.020185033 -0.053081363 0.03415764
0003a0 ae 22 6a bd f6 56 d0 3c 58 f1 f1 3c 7c 82 ae 3c
       -0.05716198 0.025432091 0.029534027 0.021302454
0003b0 48 20 23 bd a5 0d 1c bd 7f f1 00 bc 8a e1 db 3c
       -0.039825708 -0.03809895 -0.007870077 0.026840944
0003c0 30 fc 62 bd 1a af a5 39 ae 6a 91 3d 87 5e 62 3c
       -0.055416286 0.00031601713 0.07100426 0.013816482
0003d0 33 d5 5b bd b9 c9 58 bd b1 41 70 bc 2e 1f 2a 3d
       -0.05367012 -0.052926753 -0.0146641 0.04153364
0003e0 ce 16 be bc e6 98 d4 bc 1e 2f aa bc 2e fd 04 3d
       -0.023204233 -0.025951814 -0.02077442 0.032468013
0003f0 f7 78 19 bd 5e a0 93 3c 23 0f 89 3d 8d a3 b5 bc
       -0.037468877 0.018020805 0.0669234 -0.022172714

sequential/conv2d_2/BiasAdd/ReadVariableOp:0 f4 [64]
000000 21 ae 29 ba 4d d6 5f 3b 03 e8 3b ba 36 2f 09 ba
       -0.00064727856 0.0034154833 -0.00071680563 -0.000523317
000010 2c 7e e8 b9 8b d6 32 ba 87 1a 24 ba e9 63 c9 3a
       -0.00044344494 -0.00068221305 -0.00062600564 0.0015364859
000020 8b 31 3a bb bb 1e 33 3a b0 39 05 bc 70 fd 72 bb
       -0.0028410878 0.00068328873 -0.00813143 -0.003707733
000030 c3 5b d0 ba cc 97 b1 bb 1d bd 33 bb ca 0b 55 bb
       -0.0015896488 -0.005419707 -0.0027425953 -0.0032508248
000040 30 8f f6 ba bd c2 8b 3a ee 99 b0 ba ae f2 47 3a
       -0.0018810984 0.0010662895 -0.0013473609 0.00076274097
000050 06 44 ae bb c3 29 b1 bb 96 3e 23 3c 53 cd 27 3c
       -0.0053181676 -0.0054065897 0.009963652 0.010241824
000060 94 45 f4 ba 09 33 f7 3a c5 bc 0b 3c 0c 15 44 ba
       -0.0018636459 0.0018859814 0.008528893 -0.0007479943
000070 f2 1f c8 b9 00 5b 8d bb de 3b fd ba 36 24 c7 3a
       -0.00038170774 -0.0043138266 -0.001932021 0.0015193287
000080 37 a3 df 3a 99 6c 17 3a ff 93 57 3c 92 63 18 bb
       0.0017062192 0.0005776375 0.013157844 -0.0023252708
000090 bb c5 92 bb c9 34 38 3a 17 1f 11 39 35 0a 79 3a
       -0.0044791377 0.00070269086 0.0001383986 0.0009500117
0000a0 71 76 33 ba 12 5c 17 ba 2d 46 ba 36 1d 56 2a 3a
       -0.0006845957 -0.00057739124 5.5514015e-06 0.0006497817
0000b0 fc 14 80 3b d3 25 4b bb 70 e9 de ba a3 33 3e bb
       0.0039087515 -0.0030997887 -0.0017006826 -0.0029022477
0000c0 c8 7a 03 ba 5a 92 5d bb 25 3a ee ba 4c 22 40 bb
       -0.0005015549 -0.0033809156 -0.0018175287 -0.0029317318
0000d0 e0 93 07 ba 29 66 d6 ba ba 73 d9 3b 48 77 f8 3b
       -0.00051718764 -0.001635735 0.00663611 0.007582579
0000e0 f7 b7 96 bb fd b8 2b bb 67 a9 2f b8 27 09 cd 3b
       -0.004599567 -0.002620279 -4.188102e-05 0.0062571946
0000f0 43 5f d1 3a 60 2e 1d ba a1 15 25 3b c5 00 35 3b
       0.0015973825 -0.0005995985 0.0025189894 0.0027618867
